logs/top/pretrained/best-val-model.pt (torch, 947891 bytes, 117 tensors)

module.embedding.weight f4 [72, 2]
-0.01438966 0.00070424646 -0.039840333 0.16578506 -0.91576207 -0.13055721 0.021846214 -0.13357879
0.80356455 0.08299373 0.043202378 -0.21559197 -0.015581475 0.06397959 -1.1748292 -0.044628326
0.017946104 0.1639709 -0.00052600366 0.005256406 -0.3331584 0.1477542 1.0396165 0.13246734
-0.015870942 -0.16701294 -0.26911685 -0.09566204 0.020625092 -0.36076155 0.037806258 -0.18941616
-0.014421256 -0.0075227306 0.05274938 -0.20970927 0.00088045845 -0.17923369 0.0056585683 0.059077382
0.0048259017 0.000692506 0.010434256 0.000602669 -0.0035545724 0.0034319295 0.049381245 -0.12979211
-0.074447714 0.24759647 -0.0012066961 -0.0019439005 1.0571861 0.0723163 -0.36182255 -0.16387773
0.03975468 -0.16086361 0.045454923 0.19706239 0.06922753 0.20866086 0.047019247 -0.09325939
0.34798792 -0.050629273 -0.09145799 0.12304323 0.07151274 -0.257389 0.05968765 0.17595203
0.1271056 0.09856785 0.005069975 0.0022261457 -0.019319102 -0.03836004 0.017059695 0.078928635
0.013167801 0.0005813979 0.8064853 0.16014865 -0.00564868 0.095663905 0.7885018 0.08231385
-0.8650508 -0.0570577 -0.024429226 0.17567714 0.641094 0.015533685 -0.0052315467 -0.122961715
-0.06724514 0.13986394 -0.32170415 0.10097443 -0.00062559394 0.003820086 0.031422712 -0.03058954
0.023136241 -0.060462076 0.020841649 0.07596755 0.0015991338 -0.15755862 -0.0093036005 0.08203434
-1.0620078 -0.11569468 -0.34611887 0.16107483 0.1113949 -0.19301024 0.0016045488 0.0037707624
-0.12818645 -0.20401853 1.2296871 0.09449038 0.15975204 -0.24715896 -0.006025153 0.008467905
0.0015350097 -0.01529653 0.8676235 0.10515573 -0.8758313 0.028709363 -0.005640811 0.0055421097
-0.009085572 0.16127266 0.34199953 -0.048897497 -0.00523871 -0.007670005 0.10589208 0.060101863
00000000: 9cc2 6bbc 2e9d 383a 9e2f 23bd 8fc3 293e
00000010: 626f 6abf cab0 05be d5f6 b23c e1c8 08be
00000020: 68b6 4d3f 9ef8 a93d faf4 303d 24c4 5cbe
00000030: 7149 7fbc bb07 833d ce60 96bf 31cc 36bd
00000040: b503 933c fde7 273e 82e3 09ba ee3d ac3b
00000050: bd93 aabe e14c 173e 2712 853f 85a5 073e
00000060: c703 82bc 7105 2bbe afc9 89be 76ea c3bd
00000070: f4f5 a83c bdb5 b8be bcda 1a3d 4ff6 41be
00000080: 2247 6cbc 3d81 f6bb bc0f 583d 07be 56be
00000090: 91ce 663a 0989 37be 836b b93b 20fb 713d
000000a0: 9922 9e3b 4a89 353a 71f4 2a3c 6ffc 1d3a
000000b0: d4f3 68bb 39ea 603b fd43 4a3d 39e8 04be
000000c0: 0b78 98bd ee89 7d3e 012a 9eba 7aca feba
000000d0: e051 873f 911a 943d ce40 b9be 90cf 27be
000000e0: ced5 223d 6eb9 24be f12e 3a3d b9ca 493e
000000f0: 2ac7 8d3d 31ab 553e 4197 403d c7fe bebd
00000100: 792b b23e a460 4fbd 544e bbbd 17fe fb3d
00000110: 4575 923d 7ec8 83be 0a7b 743d c52c 343e
00000120: f827 023e f1dd c93d 0822 a63b 87e4 113b
00000130: 1843 9ebc 6b1f 1dbd c6c0 8b3c 56a5 a13d
00000140: c3bd 573c f468 183a d275 4e3f 02fe 233e
00000150: 9018 b9bb 70eb c33d 41db 493f 2a94 a83d
00000160: f873 5dbf 56b5 69bd cd1f c8bc b5e4 333e
00000170: bd1e 243f ff80 7e3c 656d abbb 5ad3 fbbd
00000180: d2b7 89bd 7e38 0f3e 68b6 a4be afcb ce3d
00000190: e6fe 23ba 685a 7a3b 1ab5 003d ea96 fabc
000001a0: 3788 bd3c 15a7 77bd 1bbc aa3c e094 9b3d
000001b0: 079a d13a 0c57 21be 216e 18bc 9f01 a83d
000001c0: dfef 87bf 55f1 ecbd 7e36 b1be cdf0 243e
000001d0: 0223 e43d 7aa4 45be b94f d23a e51e 773b
000001e0: 4f43 03be 3cea 50be 6366 9d3f 2c84 c13d
000001f0: 0a96 233e 3d17 7dbe a66e c5bb f8bc 0a3c
00000200: 6132 c93a 4c9e 7abc 931c 5e3f e35b d73d
00000210: 7b36 60bf e62f eb3c 8dd6 b8bb 969a b53b
00000220: a7db 14bc a924 253e 901a af3e be48 48bd
00000230: 7ca9 abbb aa54 fbbb f2dd d83d 5f2d 763d

module.embedding.bias f4 [72]
0.13793981 0.08799105 -0.13652301 0.15167157 -0.050120175 0.020414265 -0.071786515 -0.10573295
0.064227976 -0.038809672 0.056297984 -0.008744409 0.013781973 -0.049010582 0.007501481 0.15297417
-0.053082347 0.084281825 0.06586955 0.079675056 0.041062087 0.0248839 -0.06711717 0.13030526
-0.043990385 0.04698913 0.0539297 0.108504035 0.09008755 -0.12547596 -0.04749341 -0.08982611
0.1704478 0.02175436 0.014829029 0.014958427 -0.024751278 -0.051823195 0.050762843 -0.075353555
0.056559317 0.12773734 0.073637694 -0.058088653 0.16363901 0.065300025 -0.080379084 -0.027950766
-0.06423385 -0.07372733 0.01502287 -0.02140925 -0.056720663 -0.06920508 -0.09175633 0.07425191
0.10963097 -0.056881525 -0.11481784 -0.0006538918 0.18762955 0.07465083 0.093076594 0.059926383
-0.081876114 -0.07004917 -0.012542319 0.07491166 -0.054263372 -0.10983439 -0.0066495594 -0.117368214
00000000: 1840 0d3e a734 b43d b0cc 0bbe cb4f 1b3e
00000010: d04a 4dbd d13b a73c cf04 93bd 848a d8bd
00000020: f589 833d e4f6 1ebd b798 663d b644 0fbc
00000030: c9cd 613c 52bf 48bd fcce f53b 43a5 1c3e
00000040: e06c 59bd f39b ac3d 9de6 863d ad2c a33d
00000050: b830 283d 52d9 cb3c ba74 89bd be6e 053e
00000060: 432f 34bd ad77 403d 64e5 5c3d 5d37 de3d
00000070: d27f b83d c57c 00be 7388 42bd c0f6 b7bd
00000080: de89 2e3e 3336 b23c 75f5 723c 3114 753c
00000090: 31c3 cabc 8f44 54bd b3ec 4f3d f752 9abd
000000a0: beaa 673d 94cd 023e 5ccf 963d 5eee 6dbd
000000b0: fc90 273e 05bc 853d ca9d a4bd 01f9 e4bc
000000c0: 098d 83bd 5bfe 96bd 7c22 763c 7462 afbc
000000d0: ed53 68bd 65bb 8dbd beea bbbd 6311 983d
000000e0: 3486 e03d 9afc 68bd 9e25 ebbd f069 2bba
000000f0: f621 403e 89e2 983d f19e be3d 5e75 753d
00000100: aaae a7bd f075 8fbd 4c7e 4dbc 496b 993d
00000110: 4543 5ebd daf0 e0bd 8ce4 d9bb bf5e f0bd

module.LGEBs.0.phi_e.0.weight f4 [72, 146]
-0.003972448 0.10113168 0.06565772 -0.06767101 -0.07192246 -0.10294198 0.077595145 0.051569752
0.06098477 0.015953053 0.112800606 -0.04648974 -0.053962145 0.03523402 -0.109154016 -0.0680162
-0.01772484 -0.09120583 -0.07559692 0.0711239 0.035433356 -0.034806974 -0.018118486 -0.10353833
0.10883919 0.0024903181 -0.057632934 0.026020912 -0.07130487 0.034655016 0.014321886 -0.07250723
-0.087939896 0.07457802 -0.09703886 0.012821701 -0.020966088 -0.0121917995 -0.005334802 0.008713889
0.027498748 -0.05023019 0.050691064 -0.065162644 0.055555668 0.10099616 -0.07418547 -0.06324586
0.10328784 0.09113232 0.01841527 -0.0675041 -0.04358565 0.01411048 -0.0519061 0.045305185
0.0474968 0.09769918 -0.07731506 -0.011911833 0.030594995 -0.055655327 -0.08985302 0.027717981
-0.028359061 -0.048795387 0.08162061 0.042290807 0.09269387 -0.07363028 -0.05220528 -0.09906935
0.09556673 0.20559679 -0.08413195 -0.20171134 0.06845626 -0.21152471 0.17527425 -0.007457338
0.19261949 -0.0036916586 0.21737204 0.10643941 -0.22005728 -0.15201983 -0.23355323 -0.22222936
-0.024335096 -0.20888102 -0.20789629 0.15546335 0.011244947 -0.044690955 -0.005853929 -0.1998929
0.22593598 0.0026991968 0.054806244 -0.18751907 -0.2008381 0.20179895 0.19268377 -0.17542106
-0.14873457 0.20985335 -0.23261593 0.21322733 0.1748701 -0.038908638 -0.09847441 0.17566173
0.031269997 0.12488306 0.15598963 0.111097574 -0.0077966005 0.22369587 0.009663385 -0.18597141
0.20612304 0.1677745 0.056719963 -0.14379998 -0.13692802 0.14380217 -0.23165666 0.19283234
-0.081152454 0.21865003 -0.19911972 -0.02053791 -0.19509847 0.046794236 -0.22875269 0.045410533
-0.1166093 0.103120126 0.06506346 0.046752572 0.21643212 -0.110995166 -0.040594716 0.109426916
-0.20279528 0.24548806 0.026708825 0.06079936 0.06042254 -0.041162536 -0.07319143 -0.06839038
0.065974645 0.06642845 0.04159338 -0.024703415 0.12399948 -0.06542225 -0.02619098 0.060893558
-0.08488265 -0.059307177 0.03170832 -0.07474917 -0.04313071 0.041736823 -0.029196875 -0.009704487
-0.0476649 -0.058053493 0.08574626 0.04780909 -0.05790274 0.051594745 -0.07569746 0.0071771415
-0.029368272 -0.057422735 -0.08754046 0.058299154 -0.08687619 -0.0045243627 -0.055805974 -0.03359413
0.022843119 -0.038128804 -0.021845903 -0.07476236 0.009101338 -0.06440344 0.08704481 0.06366163
-0.07018075 -0.044720665 0.08986383 0.090279326 0.0683853 -0.029184852 -0.007219213 0.0049510244
-0.04628475 0.046852063 0.061346292 0.08773278 -0.08213441 0.063331194 0.0294339 -0.05996893
-0.09893235 -0.0017603434 0.011255958 -0.059849206 0.08339987 0.13409957 0.046853848 -0.06272401
-0.0751575 -0.10804156 0.017824102 0.123493746 -0.097511046 -0.14046559 0.06388991 -0.14640698
0.10147799 -0.055517584 0.15920421 0.008580757 0.13440393 0.09364837 -0.1371227 -0.116954334
-0.17913084 -0.13676062 -0.020544501 -0.1463092 -0.16269429 0.071820766 0.022408703 -0.02458391
0.048289686 -0.123046055 0.16854188 -0.06725273 0.065683626 -0.13912284 -0.14228266 0.15667762
0.16572514 -0.11745359 -0.08813683 0.11886038 -0.1716693 0.12471835 0.111830786 0.006410143
00000000: 4f2b 82bb 201e cf3d 8e77 863d 1997 8abd
00000010: 154c 93bd 3fd3 d2bd 34ea 9e3d ce3a 533d
00000020: 2bcb 793d faaf 823c 0104 e73d 076c 3ebd
00000030: 6907 5dbd 8c51 103d 248c dfbd 144c 8bbd
00000040: af33 91bc 1fca babd 8fd2 9abd 68a9 913d
00000050: 9122 113d c291 0ebd 386d 94bc e70b d4bd
00000060: 15e7 de3d 9b34 233b 8310 6cbd cf29 d53c
00000070: 4a08 92bd 6bf2 0d3d 58a6 6a3c ac7e 94bd
00000080: d519 b4bd 5cbc 983d 4fbc c6bd 1d12 523c
00000090: 13c1 abbc 1dc0 47bc 90cf aebb b3c4 0e3c
000000a0: 0e45 e13c 2cbe 4dbd 6fa1 4f3d fe73 85bd
000000b0: 578e 633d 13d7 ce3d 8dee 97bd 0c87 81bd
000000c0: 9388 d33d 95a3 ba3d 9fdb 963c 973f 8abd
000000d0: de86 32bd a52f 673c 7e9b 54bd ee91 393d
000000e0: 018c 423d 8216 c83d 5c57 9ebd d929 43bc
000000f0: 5ba2 fa3c d7f6 63bd dc04 b8bd d210 e33c
00000100: 4351 e8bc acdd 47bd b528 a73d 2039 2d3d
00000110: 49d6 bd3d 79cb 96bd 34d5 55bd dfe4 cabd
00000120: 7db8 c33d f787 523e 5f4d acbd 6b8d 4ebe
00000130: cc32 8c3d ef99 58be 187b 333e af5c f4bb
00000140: 0b3e 453e c1ef 71bb c796 5e3e e8fc d93d
00000150: b256 61be 16ab 1bbe 9428 6fbe 1890 63be
00000160: 655a c7bc e8e4 55be c4e2 54be c931 1f3e
00000170: ba3c 383c dd0d 37bd 51d2 bfbb b9b0 4cbe
00000180: c35b 673e 02e5 303b 837c 603d 0005 40be
00000190: 81a8 4dbe 62a4 4e3e e54e 453e 94a1 33be
000001a0: e04d 18be cce3 563e df32 6ebe 4458 5a3e
000001b0: 2611 333e aa5e 1fbd f4ac c9bd abe0 333e
000001c0: f814 003d b1c2 ff3d bfbb 1f3e 2087 e33d
000001d0: a07a ffbb 8810 653e 2d53 1e3c 4a6f 3ebe
000001e0: eb11 533e 14cd 2b3e 3153 683d 4d40 13be
000001f0: dc36 0cbe e040 133e 6737 6dbe d775 453e
00000200: 4233 a6bd cbe5 5f3e 0ae6 4bbe 1e3f a8bc
00000210: e5c7 47be 50ab 3f3d 253e 6abe 6500 3a3d
00000220: dbd0 eebd a530 d33d fe3f 853d a07f 3f3d
00000230: 62a0 5d3e 6f51 e3bd a546 26bd 381b e03d
00000240: 91a9 4fbe 3961 7b3e 77cc da3c c008 793d
00000250: a07d 773d 0c9a 28bd 63e5 95bd 4110 8cbd
00000260: b71d 873d a40b 883d d25d 2a3d d15e cabc
00000270: 70f3 fd3d 1afc 85bd 778e d6bc 866b 793d
00000280: f4d6 adbd 15ec 72bd 95e0 013d 1816 99bd
00000290: d4a9 30bd 3bf4 2a3d 492e efbc 92ff 1ebc
000002a0: 453c 43bd 80c9 6dbd bc9b af3d 77d3 433d
000002b0: 6c2b 6dbd 0355 533d 4507 9bbd 3a2e eb3b
000002c0: bb95 f0bc 1a34 6bbd 6a48 b3bd 18cb 6e3d
000002d0: 25ec b1bd 1b41 94bb ce94 64bd 009a 09bd
000002e0: 7e21 bb3c f32c 1cbd 2ef6 b2bc 021d 99bd
000002f0: c71d 153c f3e5 83bd 8d44 b23d 0761 823d
00000300: edba 8fbd 042d 37bd 870a b83d 5ee4 b83d
00000310: 980d 8c3d 1215 efbc 268f ecbb 343c a23b
00000320: 1495 3dbd f3e7 3f3d 4046 7b3d 3ead b33d
00000330: 1636 a8bd c9b3 813d 5d1f f13c fba1 75bd
00000340: 0b9d cabd 53bb e6ba e96a 383c 7124 75bd
00000350: 8dcd aa3d 6651 093e d2e9 3f3d 7275 80bd
00000360: 2dec 99bd e544 ddbd da03 923c 4aea fc3d
00000370: dfb3 c7bd 36d6 0fbe b7d8 823d b6eb 15be
00000380: b1d3 cf3d 6866 63bd 6e06 233e 4e96 0c3c
00000390: 2fa1 093e b7ca bf3d e569 0cbe c185 efbd
000003a0: 136e 37be fa0a 0cbe f14c a8bc 14d2 15be
000003b0: 5599 26be c416 933d 7592 b73c 3264 c9bc
000003c0: 68cb 453d 92ff fbbd 3e96 2c3e cdbb 89bd
000003d0: 2385 863d 3876 0ebe 8cb2 11be 1970 203e
000003e0: dab3 293e 828b f0bd 1581 b4bd 126d f33d
000003f0: 14ca 2fbe 566c ff3d 8a07 e53d 2d0c d23b

module.LGEBs.0.phi_e.1.weight f4 [72]
0.16602798 0.1518933 0.021297932 0.17473432 0.027151862 0.26311433 0.0025378095 0.15442233
0.27830845 -0.0011656142 0.5633455 0.11441501 0.32394037 0.168621 0.23015583 0.14223488
0.0071209264 0.2360346 0.0013083338 0.23183224 0.14575888 0.15067425 0.24422179 0.2732293
0.102374576 0.009788 0.038685445 0.27736554 0.035521105 0.062316187 0.16455127 0.27910662
0.20708519 0.18472855 0.019416887 0.0026636412 0.010929472 0.66220397 0.09539722 0.23067172
0.3037438 0.05260537 0.3019016 0.23326276 0.28206843 0.05223102 0.1538097 0.23612818
0.14654101 0.006820215 0.11981062 0.15010582 0.25375524 0.2913373 0.2973 0.16940081
0.043881252 0.20046426 0.17937033 0.26477373 0.18173482 0.13079505 0.118177876 0.2694318
0.24261263 0.23742512 0.10457683 0.036361944 0.39349642 0.24977887 0.04104177 0.26288515
00000000: 3d03 2a3e eb89 1b3e 0079 ae3c 8eed 323e
00000010: 956d de3c ecb6 863e 6151 263b e320 1e3e
00000020: 727e 8e3e 86c7 98ba 6937 103f 6b52 ea3d
00000030: 83db a53e fcaa 2c3e f8ad 6b3e 05a6 113e
00000040: a956 e93b 0eb3 713e 667c ab3a 6e65 6d3e
00000050: d141 153e 5a4a 1a3e 4715 7a3e b6e4 8b3e
00000060: c3a9 d13d d95d 203c a174 1e3d db02 8e3e
00000070: 947e 113d 423f 7f3d 2180 283e 10e7 8e3e
00000080: 240e 543e 7b29 3d3e 2a10 9f3c 7c90 2e3b
00000090: 8711 333c 3386 293f 9e5f c33d 3535 6c3e
000000a0: 4f84 9b3e ba78 573d d992 9a3e 6fdc 6e3e
000000b0: 466b 903e 32f0 553d 4a80 1d3e 96cb 713e
000000c0: d90e 163e 1c7c df3b 455f f53d 57b5 193e
000000d0: 35ec 813e 2a2a 953e b537 983e 6877 2d3e
000000e0: d4bc 333d 8146 4d3e dbac 373e 6c90 873e
000000f0: b118 3a3e 23ef 053e 3e07 f23d f7f2 893e
00000100: 726f 783e 921f 733e 612c d63d 43f0 143d
00000110: 5d78 c93e 08c6 7f3e 6a1b 283d e298 863e

module.LGEBs.0.phi_e.1.bias f4 [72]
-0.30369774 -0.32428658 -0.111585885 -0.22025143 -0.11950528 -0.105942324 -0.09449108 -0.27276677
-0.111102246 -0.021481592 0.037504476 -0.2931615 0.09340554 -0.09112601 -0.017922882 -0.31680512
-0.0831956 0.035540562 -0.16140494 -0.27656704 -0.039795563 -0.12685391 0.01950697 -0.27985412
-0.32067174 -0.034998205 -0.18048356 -0.29604843 -0.16637905 -0.09147326 -0.24147297 0.15174305
0.043208364 -0.22874115 -0.18153885 -0.021086816 -0.046177708 -0.027591098 -0.06878541 -0.19118874
-0.24120887 -0.15134497 -0.16359845 -0.0010663092 -0.2763127 -0.09051046 -0.12664038 -0.2458948
-0.32659423 -0.10328336 -0.34494895 -0.040217422 -0.22602035 -0.27709392 -0.18027356 -0.12801062
-0.11624223 -0.23374014 -0.4005778 -0.25498125 -0.12488757 -0.12630294 -0.35148728 0.03037185
-0.0013856424 -0.27726725 -0.1937946 -0.12967077 -0.07238394 -0.2620436 -0.12215359 -0.15057285
00000000: 457e 9bbe e408 a6be 2487 e4bd 9789 61be
00000010: 2fbf f4bd 4af8 d8bd 8a84 c1bd 16a8 8bbe
00000020: 9389 e3bd 2afa afbc 4b9e 193d 4419 96be
00000030: 674b bf3d 46a0 babd 02d3 92bc 4834 a2be
00000040: 7462 aabd fb92 113d 5647 25be 329a 8dbe
00000050: ac00 23bd fee5 01be 15cd 9f3c 0a49 8fbe
00000060: 162f a4be 475a 0fbd afd0 38be a993 97be
00000070: 455f 2abe 5556 bbbd b144 77be 8862 1b3e
00000080: 41fb 303d 1f3b 6abe 52e5 39be 42be acbc
00000090: d624 3dbd ba06 e2bc 5ddf 8cbd fbc6 43be
000000a0: 75ff 76be 2dfa 1abe 5a86 27be 66c3 8bba
000000b0: dc78 8dbe 8c5d b9bd 04ae 01be d9cb 7bbe
000000c0: 5c37 a7be 3a86 d3bd 269d b0be 06bb 24bd
000000d0: e171 67be 41df 8dbe a299 38be 3715 03be
000000e0: 6810 eebd 9359 6fbe 8918 cdbe e78c 82be
000000f0: 0ec5 ffbd 8f55 01be 24f6 b3be 63ce f83c
00000100: 729e b5ba f9f5 8dbe 1772 46be 6ac8 04be
00000110: 083e 94bd 942a 86be a92b fabd c52f 1abe

module.LGEBs.0.phi_e.1.running_mean f4 [72]
0.43271962 0.63960254 -0.0016867863 0.52609813 0.08216889 -0.27240473 0.04252048 0.41628367
-0.13698551 0.24434865 0.031693313 0.18394123 0.47822794 -0.6385656 -0.4667834 0.15825227
0.013148028 0.1706185 0.08351001 0.6940845 -0.48095056 -0.49952695 0.2698252 -0.30369624
0.1580647 0.0963941 -0.4792431 -0.28251544 -0.16963544 -0.21726921 0.54287565 0.38271412
-0.2486194 0.6085184 0.08119412 0.2987754 0.037048556 -0.072121024 0.036077794 -0.5086464
-0.300291 -0.07361146 -0.5221637 -0.79723984 -0.28704026 -0.13509415 -0.47934416 -0.70255977
0.1811722 -0.16055647 0.15415815 -0.5165801 -0.5379912 -0.35420677 -0.6770591 -0.42341465
0.017717078 0.44055626 0.5604584 1.2531662 -0.26546678 0.23512241 0.1930149 -0.8321759
-0.74800783 0.7116625 -0.5001425 0.043775193 -0.61106604 -0.5396014 -0.0862371 -0.5960841
00000000: 6d8d dd3e febc 233f 2817 ddba 5eae 063f
00000010: 2a48 a83d a278 8bbe f429 2e3d 2223 d53e
00000020: ee45 0cbe 8836 7a3e d9d0 013d 175b 3c3e
00000030: 4bda f43e 0979 23bf 3cfe eebe e20c 223e
00000040: d46a 573c 9eb6 2e3e 4c07 ab3d 86af 313f
00000050: 273f f6be ffc1 ffbe 8726 8a3e 137e 9bbe
00000060: b6db 213e 456a c53d 5a5f f5be dda5 90be
00000070: eab4 2dbe d27b 5ebe e6f9 0a3f 1bf3 c33e
00000080: 1696 7ebe ddc7 1b3f 1a49 a63d 17f9 983e
00000090: 3ac0 173d 30b4 93bd 4fc6 133d a736 02bf
000000a0: bebf 99be 9bc1 96bd 85ac 05bf e917 4cbf
000000b0: f1f6 92be 1f56 0abe 996c f5be f5da 33bf
000000c0: 3585 393e ea68 24be a2db 1d3e 983e 04bf
000000d0: cbb9 09bf 975a b5be bf53 2dbf cec9 d8be
000000e0: 6823 913c 9790 e13e 347a 0f3f c067 a03f
000000f0: 43eb 87be eec3 703e b3a5 453e 7b09 55bf
00000100: 717d 3fbf 832f 363f 5709 00bf 9e4d 333d
00000110: d36e 1cbf 5123 0abf 149d b0bd f898 18bf

module.LGEBs.0.phi_e.1.running_var f4 [72]
0.4007208 0.59442663 0.019846465 0.5621905 0.077320345 0.1055761 0.022017822 0.40228194
0.05864271 0.22323482 0.1618122 0.16820394 0.08150203 0.7909587 0.616478 0.23639968
0.07434192 0.028492844 0.06288043 0.7436445 0.17401674 0.13204709 0.14989778 0.04447661
0.2449467 0.03293117 0.105474636 0.04747165 0.021340463 0.06563347 0.5149829 0.12900588
0.17172061 0.6533301 0.040648114 0.19003667 0.044400424 0.08604485 0.0040866835 0.13218942
0.0560469 0.006662036 0.23716654 0.9975208 0.054619078 0.04181941 0.47073954 0.2978044
0.24196 0.048485473 0.18242015 0.4145281 0.17490357 0.069643445 0.2889035 0.104177244
0.054450274 0.40824345 0.20602456 1.8205031 0.084689446 0.0203138 0.18881877 1.1806779
1.0605382 0.8176356 0.27596954 0.025052592 0.3478763 0.19644026 0.016033774 0.30988896
00000000: 472b cd3e 582c 183f 0e95 a23c b7eb 0f3f
00000010: 215a 9e3d 4838 d83d b85e b43c e6f7 cd3e
00000020: 5733 703d ab97 643e 19b2 253e a73d 2c3e
00000030: 89ea a63d 457c 4a3f 81d1 1d3f c212 723e
00000040: 9440 983d d369 e93c 74c7 803d 7c5f 3e3f
00000050: 7231 323e 5a37 073e ce7e 193e 1b2d 363d
00000060: 4fd3 7a3e d6e2 063d 1603 d83d a271 423d
00000070: 32d2 ae3c d76a 863d ebd5 033f 1e1a 043e
00000080: 87d7 2f3e a440 273f a37e 263d f998 423e
00000090: 38dd 353d 4838 b03d 96e9 853b aa5c 073e
000000a0: 6f91 653d 354d da3b c9db 723e 865d 7f3f
000000b0: 41b8 5f3d d44a 2b3d c604 f13e d179 983e
000000c0: 5dc4 773e b498 463d 59cc 3a3e 073d d43e
000000d0: ec19 333e 39a1 8e3d 29eb 933e e15a d53d
000000e0: 4007 5f3d 4905 d13e 1af8 523e 3f06 e93f
000000f0: a971 ad3d 2069 a63c b559 413e 7420 973f
00000100: b7bf 873f 9150 513f e14b 8d3e 183b cd3c
00000110: d81c b23e a327 493e 4359 833c c4a9 9e3e

module.LGEBs.0.phi_e.3.weight f4 [72, 72]
-0.033045083 -0.018137941 -0.026659045 -0.024567924 -0.010559918 0.012495664 0.0040085353 -0.00036012992
0.0007512754 -0.031763624 0.0074974676 -0.04105423 -0.022810416 0.0037965304 0.00077391806 -0.033088192
-0.009908568 0.0060888566 -0.005928444 -0.030766008 -0.022053378 -0.029608706 -0.013223822 0.011251764
-0.019560995 -0.041979685 0.01777392 -0.026387597 -0.00032569346 -0.0046955505 -0.013184826 0.00041282483
-0.011144253 -0.0039779274 -0.0030318098 -0.041429576 -0.034139365 -0.022427218 -0.015873304 -0.0074343593
-0.03957161 0.0034604096 -0.03683954 -0.029360391 -0.024692817 0.0010970893 -0.005767814 -0.006854974
-0.01722253 -0.008478551 0.003923026 0.009560291 -0.03753138 -0.028014373 -0.034113917 -0.007469104
0.00020549285 -0.025433827 -0.024154492 0.0018864437 0.016043793 -0.03203698 -0.0012228107 0.009825759
-0.021973316 -0.019951582 -0.04139208 0.0033635986 -0.0110642705 -0.0069050626 -0.018860854 -0.03693324
-0.017029013 -0.005481951 -0.020346824 -0.006860008 -0.023012891 -0.026410995 0.0041061724 -0.011328748
0.009976507 -0.016246984 0.004974451 -0.015356863 -0.021751495 -0.010691075 0.0075877826 -0.025661761
-0.012200696 -0.01715612 -0.011507556 0.010928251 0.0074913744 -0.016970856 -0.016552474 0.012638384
-0.0051089306 -0.013329212 -0.0055406955 -0.0074262014 0.0038214189 -0.013034918 -0.014176122 -0.027924078
-0.016249385 -0.018580206 0.013023659 -0.009073401 0.0008754566 -0.010148513 -0.003019593 -0.022335295
0.007416085 -0.011527506 -0.017907495 -0.014207805 -0.011174388 0.009319503 -0.0056011206 0.0049098763
0.009389447 0.0043484108 0.011496811 0.01621012 0.018509509 0.019895932 -0.017197117 -0.012526493
0.002382947 -0.011060048 0.014597519 0.014856227 -0.026180089 -0.009875435 -0.015458496 0.015024237
-0.020761251 0.00800879 -0.017887177 -0.004862981 0.014107803 0.015927954 0.0020564776 0.00094239356
-0.15081185 -0.05973264 0.025802307 -0.073093735 0.018823149 -0.312815 -0.09211948 -0.22735307
-0.150466 -0.02785747 -0.30088502 0.12270046 -0.23319994 -0.06392235 0.19635327 -0.0022877292
0.04636938 0.23819108 -0.0989321 -0.09020704 -0.20508131 -0.017831998 -0.06727044 -0.019514633
0.071532115 -0.07814589 0.024937302 -0.007389743 0.0012161043 -0.011454163 -0.11356519 -0.14463794
-0.1651729 -0.12349572 -0.017092325 -0.14061901 0.031351227 -0.2603353 -0.045048293 0.0021264632
-0.12548971 -0.0070717307 -0.48473516 0.015850235 0.0021093285 0.03912149 -0.17870761 -0.14369881
0.087789245 -0.020229567 0.07218387 -0.061909102 -0.15442453 -0.17199734 -0.38503686 0.021918392
-0.015293518 -0.036529407 -0.05227718 -0.26551592 -0.03644812 0.046676308 0.091640204 -0.020075502
-0.073770665 -0.10937926 -0.10025129 -0.02233953 -0.51610667 -0.19217929 0.0036537477 -0.62891406
-0.14031251 -0.19720292 -0.09991187 -0.19671959 -0.07272595 0.08737039 0.028467726 -0.14453444
-0.16736434 -0.14350079 -0.2645437 0.05584983 -0.105074674 -0.103680156 0.2510275 -0.049850356
-0.1215279 -0.25270525 0.009344893 -0.26080382 0.32259262 0.26282364 -0.2944713 0.06187535
-0.004118823 0.03381235 0.15933804 0.05225919 -0.0073844483 -0.15181157 -0.1800214 -0.25706428
-0.36251852 -0.21688606 0.022718001 -0.050747354 -0.0830326 -0.14068088 0.030777428 0.30004856
00000000: 485a 07bd 0596 94bc 1264 dabc ac42 c9bc
00000010: 8203 2dbc 9dba 4c3c 085a 833b d2cf bcb9
00000020: 3df1 443a 931a 02bd 51ad f53b 7b28 28bd
00000030: e9dc babc 36cf 783b c3e0 4a3a 7c87 07bd
00000040: 8c57 22bc 0885 c73b 6543 c2bb ff08 fcbc
00000050: 49a9 b4bc f58d f2bc bba8 58bc 5259 383c
00000060: 613e a0bc e4f2 2bbd 9d9a 913c cd2a d8bc
00000070: d6c1 aab9 22dd 99bb 2b05 58bc 6970 d839
00000080: 6396 36bc 4659 82bb 54b1 46bb 0fb2 29bd
00000090: b8d5 0bbd 49b9 b7bc bb08 82bc ed9b f3bb
000000a0: d715 22bd 0ac8 623b 0fe5 16bd 3485 f0bc
000000b0: 9748 cabc 35cc 8f3a eeff bcbb b19f e0bb
000000c0: 4316 8dbc 9fe9 0abc ba8c 803b c4a2 1c3c
000000d0: 81ba 19bd 667e e5bc 09bb 0bbd 63bf f4bb
000000e0: 9179 5739 9a5a d0bc a4df c5bc 8c42 f73a
000000f0: 466e 833c 3539 03bd b846 a0ba 38fc 203c
00000100: 6201 b4bc 8071 a3bc be8a 29bd d26f 5c3b
00000110: ea46 35bc dd43 e2bb 1482 9abc 4f47 17bd
00000120: 6e80 8bbc f0a1 b3bb 62ae a6bc ebc9 e0bb
00000130: 8885 bcbc df5b d8bc 128d 863b 379c 39bc
00000140: 8174 233c 6518 85bc b800 a33b 5a9b 7bbc
00000150: 3130 b2bc 9e29 2fbc efa2 f83b 9d38 d2bc
00000160: 6ee5 47bc fe8a 8cbc 308a 3cbc 680c 333c
00000170: 347a f53b 7706 8bbc 0e99 87bc 3911 4f3c
00000180: d168 a7bb c462 5abc b98e b5bb 7e57 f3bb
00000190: c570 7a3b 6990 55bc f742 68bc 09c1 e4bc
000001a0: 6e1d 85bc 8435 98bc 2f61 553c 9aa8 14bc
000001b0: e67e 653a f345 26bc 5de4 45bb 82f8 b6bc
000001c0: a102 f33b dddd 3cbc bdb2 92bc dac7 68bc
000001d0: c814 37bc d4b0 183c 9b89 b7bb 07e3 a03b
000001e0: 32d6 193c 1d7d 8e3b 1f5d 3c3c 16cb 843c
000001f0: 41a1 973c cbfc a23c f8e0 8cbc eb3b 4dbc
00000200: 372b 1c3b 3435 35bc 6f2a 6f3c 8867 733c
00000210: a077 d6bc 94cc 21bc a245 7dbc 3828 763c
00000220: 8013 aabc 4d37 033c 2188 92bc a459 9fbb
00000230: 6a24 673c 577b 823c f8c5 063b f60a 773a
00000240: 6c6e 1abe 36aa 74bd 5c5f d33c 2bb2 95bd
00000250: 0133 9a3c 4a29 a0be 23a9 bcbd 3ecf 68be
00000260: c213 1abe 5935 e4bc 9a0d 9abe 614a fb3d
00000270: f7cb 6ebe b9e9 82bd d510 493e baed 15bb
00000280: d2ed 3d3d 5de8 733e ea9c cabd 78be b8bd
00000290: d600 52be 6914 92bc 16c5 89bd 27dd 9fbc
000002a0: 6e7f 923d f40a a0bd 5049 cc3c a825 f2bb
000002b0: b065 9f3a 3eaa 3bbc de94 e8bd f81b 14be
000002c0: 1623 29be 53eb fcbd 3405 8cbc 6efe 0fbe
000002d0: 256a 003d ab4a 85be 8f84 38bd 225c 0b3b
000002e0: 6080 00be fab9 e7bb 352f f8be 5ad8 813c
000002f0: a93c 0a3b db3d 203d 21ff 36be c825 13be
00000300: d9ca b33d 7ab8 a5bc 23d5 933d 6694 7dbd
00000310: 7721 1ebe 1220 30be 8d23 c5be 338e b33c
00000320: aa91 7abc dc9f 15bd 9920 56bd b4f1 87be
00000330: a04a 15bd a82f 3f3d dcad bb3d 6175 a4bc
00000340: 1315 97bd 3c02 e0bd 8c50 cdbd 6401 b7bc
00000350: 911f 04bf a6ca 44be b773 6f3b 8300 21bf
00000360: 15ae 0fbe 90ef 49be 989e ccbd dc70 49be
00000370: 58f1 94bd 3fef b23d 2635 e93c d600 14be
00000380: 8f61 2bbe dff1 12be 4672 87be cbc2 643d
00000390: 6431 d7bd 4356 d4bd ad86 803e e32f 4cbd
000003a0: 9fe3 f8bd 9562 81be 521b 193c 1488 85be
000003b0: dc2a a53e d290 863e f1c4 96be 0271 7d3d
000003c0: 31f7 86bb d27e 0a3d 8329 233e bb0d 563d
000003d0: 3ef9 f1bb 7e74 1bbe 8857 38be ee9d 83be
000003e0: 079c b9be 6117 5ebe 1a1b ba3c 75dc 4fbd
000003f0: ff0c aabd a60e 10be f220 fc3c f79f 993e

module.LGEBs.0.phi_e.3.bias f4 [72]
-0.019296713 -0.016256358 0.13767043 0.099106506 -0.0073980307 -0.044234853 0.018260663 -0.031673383
-0.34935024 -0.03892945 0.06396584 -0.14692025 -0.023912707 -0.50081563 -0.10964237 -0.024924068
0.084592395 0.086396985 0.1442227 -0.026638074 0.018066304 0.070534386 -0.020462457 -0.018165505
-0.21406113 0.1635845 0.0009668957 0.033646695 0.096419215 -0.07444074 0.15313992 -0.022621475
0.11049813 -0.025229232 -0.0011743051 -0.016500948 -0.28111893 -0.074777365 -0.13849966 -0.054343477
-0.0091671925 -0.07113974 -0.47150782 -0.29100066 -0.16099735 -0.28784034 -0.4511526 0.07001898
-0.03437415 -0.15611848 -0.028784571 -0.09496197 0.14975084 0.075707465 -0.05172969 -0.011614282
0.146155 0.14266676 -0.07774384 -0.5693873 -0.1238576 -0.018880248 -0.017256483 -0.022371162
-0.026715113 -0.026160942 0.045656037 -0.09830871 -0.03931063 -0.01174153 -0.5324591 -0.033410374
00000000: 2414 9ebc 0e2c 85bc 7af9 0c3e 5af8 ca3d
00000010: 2e6b f2bb 9b2f 35bd 6397 953c f3bb 01bd
00000020: 09de b2be 7d74 1fbd 8600 833d 4372 16be
00000030: 95e4 c3bc 7435 00bf 2e8c e0bd 8f2d ccbc
00000040: c73e ad3d e7f0 b03d 1eaf 133e 1738 dabc
00000050: c9ff 933c 5574 903d e2a0 a7bc d3cf 94bc
00000060: d732 5bbe b282 273e 4677 7d3a 1ed1 093d
00000070: 7077 c53d 6374 98bd b6d0 1c3e ac50 b9bc
00000080: d84c e23d 89ad cebc 24eb 99ba ff2c 87bc
00000090: d2ee 8fbe e024 99bd dbd2 0dbe 4497 5ebd
000000a0: fe31 16bc b6b1 91bd 7969 f1be 0afe 94be
000000b0: 7ddc 24be cf5f 93be 79fd e6be 1c66 8f3d
000000c0: e9cb 0cbd 86dd 1fbe 9fcd ebbc 6c7b c2bd
000000d0: 4958 193e 840c 9b3d 83e2 53bd d449 3ebc
000000e0: a8a9 153e 3c17 123e 2a38 9fbd 5ec3 11bf
000000f0: 0ea9 fdbd c0aa 9abc 785d 8dbc ba43 b7bc
00000100: a7d9 dabc 794f d6bc d301 3b3d 1456 c9bd
00000110: 2f04 21bd 8c5f 40bc 3d4f 08bf 51d9 08bd

module.LGEBs.0.phi_h.0.weight f4 [72, 146]
-0.05771435 0.028920304 0.0085540805 -0.029694341 -0.033774916 -0.017790383 0.025927743 0.0014731585
0.03635716 -0.036129493 0.031708382 -0.015623502 -0.02714036 0.010177613 -0.033323355 -0.02381157
-0.030624945 -0.024024189 -0.039914653 0.04319678 0.017817387 -0.05085101 0.012350598 -0.02649165
0.046146605 -0.0101411585 0.0067053298 -0.016279034 -0.047586225 0.03133991 0.037856083 -0.033832543
-0.01824959 0.018959861 -0.043735627 0.021200918 -0.0070752013 -0.027101848 -0.0067467187 0.009204249
0.041195925 -0.018109413 0.022366488 -0.004680246 0.018885657 0.043038335 -0.034863535 -0.023347579
0.03967291 0.018163597 0.030214438 -0.02116269 -0.022848891 0.0074487845 -0.03118284 0.027562013
0.0065399883 0.022092054 -0.03627595 -0.032297812 -0.04057716 0.0005143689 -0.028330103 0.02706907
-0.037478574 -0.010192628 0.009898418 0.03229116 0.050950974 -0.03922141 -0.028924948 0.035576086
0.02223249 -0.0012938245 0.040995605 0.041072555 0.03730897 0.010407142 0.018385755 0.009001103
0.0431554 0.014093329 0.027797729 -0.0067557516 0.007054037 0.047070585 0.043175086 0.0074028387
0.054321367 0.04208038 0.03845883 0.0023356734 0.029380085 0.039409455 0.015705274 -0.0051662438
0.04815877 0.059169203 0.014326593 0.018969031 0.0260977 0.03167954 0.049740802 0.057442896
0.038522318 0.0053471914 -0.011578303 0.022528524 -0.003850952 -0.00575565 0.053764313 0.024198106
0.027862594 0.14387277 -0.017782992 0.016833998 0.047000803 0.006069978 0.016688716 0.023190571
-0.0019104889 -0.016025992 -0.013734562 0.016843747 0.058346406 0.015284732 0.0502083 -0.0061893584
0.018811794 0.04387219 0.0006177841 0.037430502 0.013819283 0.014111654 -0.007361287 0.0380678
0.0086040795 0.012026315 0.03769392 -0.024910877 -0.008452201 -0.0049124886 0.0648901 0.016228184
0.004715149 0.03342069 0.5375057 -0.3927586 -0.0011250433 0.41899735 -0.0095126815 0.34635857
-0.3635248 -0.020273171 -0.34574535 -0.09010226 -0.26935527 -0.0076604676 0.31247872 0.08553021
0.37456822 0.43307024 -0.06673426 0.4200325 0.3602702 -0.3440407 -0.20662665 0.027091388
0.1390005 0.38597423 -0.3831724 0.07302121 -0.005488723 0.07405944 0.39883906 -0.30557215
-0.2506296 0.41957423 0.16079944 -0.39200225 0.38128275 -0.25550476 -0.1365967 -0.075767614
0.19422522 -0.30378065 -0.17180169 -0.0147814 -0.35762006 0.0052560363 -0.010646927 -0.36866447
0.03691284 0.35225472 -0.47162485 -0.15836473 0.3234782 0.31857017 0.38130644 -0.3110403
0.3618732 -0.38997504 0.0038152465 -0.22448021 0.36043555 0.061956022 0.2822574 0.020240888
0.3683365 -0.17597233 0.3308758 -0.025729267 -0.055999372 0.018427186 -0.40291032 0.08634322
-0.06678032 -0.23323311 -0.0037128325 -0.011338973 0.20160744 0.21259949 0.00051512435 -0.019416243
-0.20492418 -0.04260349 0.30920857 -0.020576607 0.033112917 -0.034354817 0.0046581635 0.22539872
0.15840444 -0.2243036 0.38793504 0.14564826 0.058404814 0.005460605 0.12612455 0.14357346
-0.0013696592 -0.0132209165 0.13813251 -0.10351045 0.010847193 0.06324369 0.016557205 0.08568681
-0.024504293 -0.013693061 0.24565287 -0.012066984 -0.0016068653 -0.027193112 0.34029424 -0.003906376
00000000: e265 6cbd 46ea ec3c 6a26 0c3c 8c41 f3bc
00000010: 9157 0abd 23bd 91bc 6b66 d43c ff16 c13a
00000020: 3feb 143d 85fc 13bd a6e0 013d b8f9 7fbc
00000030: 7655 debc 01c0 263c 127e 08bd 7b10 c3bc
00000040: 2ae1 fabc 60ce c4bc 8c7d 23bd 1bef 303d
00000050: c5f5 913c 2649 50bd 2a5a 4a3c 0405 d9bc
00000060: 3904 3d3d 1a27 26bc 62b8 db3b 9c5b 85bc
00000070: c6e9 42bd 475e 003d fb0e 1b3d fe93 0abd
00000080: 2a80 95bc b651 9b3c 2124 33bd 8cad ad3c
00000090: 17d7 e7bb b204 debc 9413 ddbb 6bcd 163c
000000a0: 0fbd 283d 315a 94bc ed39 b73c c05c 99bb
000000b0: 18b6 9a3c f748 303d 11cd 0ebd 6c43 bfbc
000000c0: 1080 223d d3cb 943c 4584 f73c 615d adbc
000000d0: 992d bbbc ef14 f43b 2873 ffbc bbc9 e13c
000000e0: 664d d63b 65fa b43c 1796 14bd b64a 04bd
000000f0: 3c34 26bd b6d6 063a 8814 e8bc f4bf dd3c
00000100: 2283 19bd fbfe 26bc f92c 223c bc43 043d
00000110: f8b1 503d a1a6 20bd 03f4 ecbc 3bb8 113d
00000120: e920 b63c 8c95 a9ba 02eb 273d b23b 283d
00000130: 4ad1 183d b882 2a3c b99d 963c 5d79 133c
00000140: b7c3 303d b5e7 663c 10b8 e33c 5a5f ddbb
00000150: 8d25 e73b 16cd 403d 5cd8 303d 8393 f23b
00000160: 1580 5e3d 7a5c 2c3d 0287 1d3d 1912 193b
00000170: 81ae f03c cf6b 213d 59a8 803c 9849 a9bb
00000180: 2142 453d 685b 723d 16ba 6a3c f164 9b3c
00000190: d8ca d53c 68c2 013d 03bd 4b3d 3e49 6b3d
000001a0: 94c9 1d3d 7e37 af3b ecb2 3dbc bd8d b83c
000001b0: 4160 7cbb e499 bcbb f837 5c3d 1b3b c63c
000001c0: 1840 e43c 6253 133e a3ad 91bc 74e7 893c
000001d0: ea83 403d aae6 c63b c6b6 883c 27fa bd3c
000001e0: 5f69 faba f148 83bc ee06 61bc e6fb 893c
000001f0: a4fc 6e3d d06c 7a3c 38a7 4d3d 1ad0 cabb
00000200: 311b 9a3c 53b3 333d caf2 213a ba50 193d
00000210: 466a 623c 9134 673c f336 f1bb fbec 1b3d
00000220: 20f8 0c3c 050a 453c f164 1a3d e511 ccbc
00000230: 1a7b 0abc f1f8 a0bb 1ae5 843d f8f0 843c
00000240: 8981 9a3b 22e4 083d f999 093f a817 c9be
00000250: 3076 93ba d286 d63e 14db 1bbc e955 b13e
00000260: ec1f babe ec13 a6bc 8905 b1be 8987 b8bd
00000270: efe8 89be a904 fbbb 36fd 9f3e 762a af3d
00000280: 68c7 bf3e 62bb dd3e f9ab 88bd 800e d73e
00000290: 5675 b83e 1a26 b0be f095 53be c2ee dd3c
000002a0: 2656 0e3e 6a9e c53e 2c2f c4be 258c 953d
000002b0: bfda b3bb 7aac 973d a234 cc3e f473 9cbe
000002c0: 8652 80be 6fd2 d63e 9ca8 243e 85b4 c8be
000002d0: 7e37 c33e 85d1 82be 01e0 0bbe 0d2c 9bbd
000002e0: fae2 463e 2389 9bbe c8ec 2fbe af2d 72bc
000002f0: fa19 b7be d43a ac3b 7370 2ebc 97c1 bcbe
00000300: eb31 173d bb5a b43e d078 f1be 5d2a 22be
00000310: ef9e a53e a11b a33e 993a c33e ad40 9fbe
00000320: 7247 b93e cfaa c7be 3709 7a3b 24de 65be
00000330: 028b b83e 99c5 7d3d 0b84 903e 38d0 a53c
00000340: 9a96 bc3e 1732 34be 8e68 a93e 2fc6 d2bc
00000350: 995f 65bd 9cf4 963c 434a cebe b7d4 b03d
00000360: 1fc4 88bd a9d4 6ebe fe52 73bb 1ac7 39bc
00000370: 2e72 4e3e aeb3 593e 6909 073a d00e 9fbc
00000380: a5d7 51be ff80 2ebd 9650 9e3e 4690 a8bc
00000390: 69a1 073d a3b7 0cbd 82a3 983b ecce 663e
000003a0: c634 223e d8af 65be 6c9f c63e d124 153e
000003b0: e339 6f3d e0ee b23b cb26 013e ec04 133e
000003c0: 2386 b3ba 8b9c 58bc 9c72 0d3e 49fd d3bd
000003d0: 6db8 313c e885 813d faa2 873c 917c af3d
000003e0: 3abd c8bc dc58 60bc 6d8c 7b3e 99b4 45bc
000003f0: 749d d2ba 17c4 debc 0c3b ae3e 0f01 80bb

module.LGEBs.0.phi_h.0.bias f4 [72]
-0.011263729 -0.0037886645 0.0043990845 0.011918251 -0.012294991 -0.0076204888 0.007982584 0.009356186
-0.007178823 -0.0023697026 -0.015205231 -0.010783885 -0.016426314 -0.012632412 0.012526842 -0.0121555505
-0.00587349 0.01956283 0.007854587 0.011374986 0.0037723526 -0.0039700586 -0.017240025 -0.0033933327
0.0010914031 -0.0022927893 0.0085221 0.0046119257 0.0049449913 -0.005943958 -0.010085259 0.0043754177
0.0015706066 -0.0012107977 0.013017435 -0.007471032 -0.009793598 0.0104828905 -0.018807195 -0.010484891
0.022749066 -0.014088571 -0.014449311 0.008725137 -0.0051612104 0.021641335 -0.011612084 -0.004953926
0.0019900969 0.0023334257 0.0067941616 0.00986649 0.0018818739 -0.008038192 -0.003096709 0.00080360565
-0.018064344 -0.0004391459 0.003910392 0.007018301 -0.016242474 -0.015447035 -0.0021594232 -0.0001854341
0.0020385568 0.009553657 -0.008724973 -0.011546098 0.020755595 -0.004149989 -0.010093 -0.008771826
00000000: 818b 38bc 3e4b 78bb 3226 903b c544 433c
00000010: ee70 49bc 4bb5 f9bb 62c9 023c b04a 193c
00000020: 553c ebbb 034d 1bbb 5c1f 79bc e4ae 30bc
00000030: 7a90 86bc 2df8 4ebc 623d 4d3c 1328 47bc
00000040: 6876 c0bb 3a42 a03c 87b0 003c 265e 3a3c
00000050: 9339 773b 4417 82bb f43a 8dbc ad62 5ebb
00000060: 690d 8f3a 9f42 16bb 47a0 0b3c a31f 973b
00000070: 9809 a23b 89c5 c2bb a43c 25bc aa5f 8f3b
00000080: d0dc cd3a a1b3 9eba 1447 553c 8fcf f4bb
00000090: 5475 20bc 6ec0 2b3c 8c11 9abc d2c8 2bbc
000000a0: 405c ba3c c0d3 66bc cebc 6cbc e1f3 0e3c
000000b0: 5f1f a9bb 2b49 b13c 9c40 3ebc 8b54 a2bb
000000c0: 496c 023b 63ec 183b 8fa1 de3b 0fa7 213c
000000d0: 36a9 f63a 9fb2 03bc 28f2 4abb 10a9 523a
000000e0: adfb 93bc 2a3d e6b9 bf22 803b c7f9 e53b
000000f0: f00e 85bc 9015 7dbc 1c85 0dbb 1671 42b9
00000100: 4f99 053b f186 1c3c 30f3 0ebc d82b 3dbc
00000110: a307 aa3c a2fc 87bb 1c5d 25bc b4b7 0fbc

module.LGEBs.0.phi_h.1.weight f4 [72]
-0.005348005 0.11811598 0.047385033 0.40445405 0.057448495 0.057609245 0.05034793 -0.0010101082
0.44725215 0.29877892 0.1509075 0.22144324 0.22609334 0.086953185 0.3381014 0.002443288
0.24517503 0.31583622 0.31664878 0.08345505 0.07477658 0.10462524 0.1636002 0.20284855
0.07031873 0.28021324 0.08004208 0.0802959 -0.003505628 0.060551982 0.30026218 0.23349199
0.2939403 0.031593326 0.06439512 0.040762104 0.0634526 0.0070408303 0.09395571 0.0009828099
0.2009164 0.032399938 0.07091941 0.23502226 0.0023858154 0.1953378 0.32319945 0.15680696
0.16775241 0.310413 0.18603326 0.024945138 0.064903766 0.077676736 0.22265801 0.07686589
0.15885963 0.23848546 0.23346771 0.04158292 0.29137793 0.06465983 0.0021674724 0.07304948
0.0712566 0.10336936 -0.0131541435 0.01133204 0.10124555 0.08861771 -0.008162822 0.06401689
00000000: 513e afbb cae6 f13d cf16 423d 9a14 cf3e
00000010: 1d4f 6b3d acf7 6b3d a239 4e3d 9b65 84ba
00000020: 3cfe e43e 8df9 983e 7f87 1a3e 04c2 623e
00000030: 0385 673e 8314 b23d a01b ad3e 921f 203b
00000040: 2a0f 7b3e 49b5 a13e ca1f a23e 7bea aa3d
00000050: 7724 993d c245 d63d d086 273e 88b7 4f3e
00000060: 4403 903d 1c78 8f3e 1aed a33d 2d72 a43d
00000070: aebe 65bb 5b05 783d f7bb 993e 8618 6f3e
00000080: 587f 963e 0168 013d 97e1 833d 2af6 263d
00000090: 70f3 813d c4b6 e63b da6b c03d a1d1 803a
000000a0: 07bd 4d3e ccb5 043d 323e 913d ada9 703e
000000b0: 575b 1c3b a206 483e 667a a53e 0192 203e
000000c0: 4ac7 2b3e 74ee 9e3e 817f 3e3e bf59 cc3c
000000d0: 44ec 843d fb14 9f3d 7600 643e dd6b 9d3d
000000e0: 19ac 223e 8835 743e 2912 6f3e da52 2a3d
000000f0: 7d2f 953e 5f6c 843d 270c 0e3b f79a 953d
00000100: fbee 913d 51b3 d33d 7a84 57bc 05aa 393c
00000110: d459 cf3d 347d b53d 5bbd 05bc 4a1b 833d

module.LGEBs.0.phi_h.1.bias f4 [72]
-0.073027916 -0.012122284 -0.09065098 -0.13625677 -0.09281255 -0.06464173 -0.090887114 -0.053964835
0.024857644 0.120553605 0.029764887 -0.0046173525 0.13920985 0.13820581 0.08414763 -0.036690954
-0.0016577954 -0.10921185 -0.048682895 -0.09232629 -0.10739682 0.047398515 -0.104065314 -0.18624038
-0.12214661 -0.05542982 -0.09377832 -0.18265915 -0.05456728 -0.10214629 0.01666144 -0.21442762
0.09689434 -0.100211434 -0.15070367 -0.05714316 -0.09493757 -0.060400825 0.012526966 -0.035214454
-0.025020158 -0.14256209 -0.07227417 -0.21636046 -0.14797482 0.11805056 0.0926523 -0.07812637
-0.03606258 -0.13586773 -0.06670339 -0.09333865 -0.08060189 -0.08797648 0.022414802 -0.109409094
0.15257813 -0.21970321 -0.2157217 -0.10553084 0.045846768 -0.08995162 -0.09207658 -0.11337104
-0.099854 -0.18940954 -0.07419413 -0.14761148 0.13704456 -0.09547138 -0.06456934 -0.085871145
00000000: a98f 95bd 8b9c 46bc 39a7 b9bd e586 0bbe
00000010: 8214 bebd e262 84bd 0623 babd 3b0a 5dbd
00000020: 42a2 cb3c cfe4 f63d 7ed5 f33c 294d 97bb
00000030: 078d 0e3e d385 0d3e 9855 ac3d 4149 16bd
00000040: 624a d9ba 76aa dfbd b767 47bd 9115 bdbd
00000050: ddf2 dbbd f224 423d 3220 d5bd ccb5 3ebe
00000060: 0028 fabd 610a 63bd d90e c0bd 000b 3bbe
00000070: f181 5fbd 1332 d1bd 927d 883c ea92 5bbe
00000080: 8a70 c63d a73b cdbd 1052 1abe f20e 6abd
00000090: a16e c2bd db66 77bd e73d 4d3c 083d 10bd
000000a0: 13f7 ccbc ccfb 11be 7b04 94bd 998d 5dbe
000000b0: b686 17be 7ec4 f13d 7dc0 bd3d b800 a0bd
000000c0: 5bb6 13bd e920 0bbe c99b 88bd 5628 bfbd
000000d0: 9b12 a5bd 032d b4bd 3f9f b73c e011 e0bd
000000e0: 713d 1c3e e1f9 60be 26e6 5cbe 8e20 d8bd
000000f0: d2c9 3b3d 8e38 b8bd a592 bcbd 132f e8bd
00000100: 4180 ccbd 93f4 41be 18f3 97bd 7727 17be
00000110: 6955 0c3e 8086 c3bd ee3c 84bd 36dd afbd

module.LGEBs.0.phi_h.1.running_mean f4 [72]
0.28655416 1.5592661 -0.6060914 -1.9760711 -0.0024473788 -0.09971165 -0.39970902 0.25385067
-1.0236099 -1.4623753 -0.55611014 0.65511227 0.08285692 0.4119614 -1.2622151 0.036889598
0.6971698 -1.3216131 -1.0600618 -0.14979479 0.010359785 0.6283061 0.15349832 -1.1627538
-0.14291635 -1.4506348 -0.11835557 -0.072345294 0.33951735 -0.04804031 -0.7979977 -1.1784112
-0.3110452 -1.0134118 0.18284059 -0.7253843 -0.12501638 0.21207911 1.7207444 -0.21877341
-0.34452057 0.029788004 -0.112770684 -1.1739066 0.40318877 -0.8556185 -0.48534372 0.68995243
-1.4402409 -1.4106498 -0.3277749 -0.3209802 -0.22602077 -0.06847853 -0.73391914 -0.23952456
-0.86352515 -1.2158048 -1.2718073 -0.7062896 0.31245062 -0.16350034 0.8202428 -0.038183406
-0.124254294 -1.0813597 0.23320958 0.25633883 -0.38731846 -0.051031083 0.16538483 -0.11631065
00000000: 3ab7 923e 0896 c73f ce28 1bbf e6ef fcbf
00000010: 3464 20bb 9f35 ccbd a9a6 ccbe b7f8 813e
00000020: a605 83bf 1d2f bbbf 3c5d 0ebf 70b5 273f
00000030: e4b0 a93d 9bec d23e 4490 a1bf 8c19 173d
00000040: b879 323f 9e2a a9bf 1bb0 87bf ce63 19be
00000050: 16bc 293c abd8 203f aa2e 1d3e 1ed5 94bf
00000060: aa58 12be 67ae b9bf 6864 f2bd c529 94bd
00000070: 38d5 ad3e ebc5 44bd 9449 4cbf 2ed6 96bf
00000080: 5141 9fbe 7ab7 81bf 903a 3b3e c9b2 39bf
00000090: 4b04 00be 442b 593e 5a41 dc3f 2306 60be
000000a0: 0065 b0be f905 f43c 51f4 e6bd 9242 96bf
000000b0: c26e ce3e d009 5bbf f97e f8be b9a0 303f
000000c0: d059 b8bf 2c90 b4bf 1dd2 a7be 8457 a4be
000000d0: fd71 67be 793e 8cbd 20e2 3bbf ed45 75be
000000e0: fc0f 5dbf 7e9f 9bbf 95ca a2bf 65cf 34bf
000000f0: 87f9 9f3e a26c 27be 6ffb 513f 3466 1cbd
00000100: 0979 febd ff69 8abf 7ece 6e3e d83e 833e
00000110: 9b4e c6be f805 51bd a45a 293e 4734 eebd

module.LGEBs.0.phi_h.1.running_var f4 [72]
0.08771021 1.6430364 0.55119896 7.145567 0.020188713 0.050592378 0.24820812 0.082428046
4.7875752 3.0643191 0.3008652 0.9419384 1.7620357 0.74688363 3.741201 0.055778235
2.8700695 2.3916075 2.58609 0.06669222 0.014253727 0.6308309 0.31028938 1.2323017
0.05347709 3.9217322 0.043963235 0.37666166 0.12719835 0.024045317 1.3437994 1.1388068
1.3782135 1.2811728 0.3701891 0.5914678 0.051164508 0.09145875 2.454541 0.051892575
0.9474932 0.026722634 0.042823102 1.1537427 0.14254367 1.337366 1.1401682 1.0432944
2.1769009 3.4067934 0.6370464 0.17312393 0.11320207 0.026827505 1.2571895 0.17052063
1.2540804 1.4340816 1.3692238 0.993215 1.1182615 0.05236217 0.40879643 0.022410214
0.040476475 1.0223323 0.05675558 0.14251794 0.47636473 0.014273447 0.036043346 0.040020715
00000000: 69a1 b33d 044f d23f 601b 0d3f 7ca8 e440
00000010: cd62 a53c f439 4f3d 452a 7e3e 09d0 a83d
00000020: d133 9940 ce1d 4440 010b 9a3e e022 713f
00000030: 638a e13f c433 3f3f d66f 6f40 b877 643d
00000040: 38af 3740 1910 1940 8082 2540 ee95 883d
00000050: 7788 693c 227e 213f 40de 9e3e 10bc 9d3f
00000060: cb0a 5b3d a9fd 7a40 cb12 343d ccd9 c03e
00000070: 4940 023e affa c43c 9e01 ac3f 6cc4 913f
00000080: 4d69 b03f 78fd a33f 6d89 bd3e 6f6a 173f
00000090: e091 513d ba4e bb3d 3317 1d40 4f8d 543d
000000a0: ea8e 723f 6de9 da3c 4767 2f3d d7ad 933f
000000b0: f8f6 113e cf2e ab3f 08f1 913f ac8a 853f
000000c0: 5852 0b40 e708 5a40 7915 233f 6647 313e
000000d0: 7dd6 e73d 5bc5 db3c 96eb a03f f69c 2e3e
000000e0: b585 a03f fc8f b73f ba42 af3f 5743 7e3f
000000f0: 3123 8f3f b779 563d c44d d13e a095 b73c
00000100: a9ca 253d c9db 823f 8a78 683d 39f0 113e
00000110: 14e6 f33e 2ddb 693c 30a2 133d c3ec 233d

module.LGEBs.0.phi_h.3.weight f4 [72, 72]
0.037125498 -0.20744076 0.009585855 -0.16052023 0.040833503 0.004358431 0.04113639 -0.018148324
-0.2045722 -0.115403876 -0.058116913 -0.3469356 -0.12061372 -0.0686875 -0.08902177 0.043594487
-0.16924773 -0.21311505 -0.00015760075 0.016975947 0.0112765655 -0.19105992 0.07536776 -0.0529625
-0.017468011 -0.15210757 -0.0024820417 0.08257344 0.014335631 0.006792172 -0.040950168 -0.21272078
-0.013008757 0.052569956 0.011273999 0.05387902 0.0005378029 0.040246747 -0.27406013 0.020682536
-0.28093886 0.0009961353 -0.00010913713 -0.23645987 0.03426122 0.09647487 -0.11071385 -0.14087898
0.028105682 -0.12749022 0.18686962 0.031476732 -0.0017310694 -0.0034483308 -0.038839087 0.0042304527
-0.058531303 -0.25426123 -0.23891413 -0.025919698 -0.101020016 0.018117206 0.01341834 0.019289035
0.015591556 -0.05691865 0.018138083 -0.023251126 0.024090517 -0.0042832512 0.028655583 0.005578135
0.026843185 0.023633348 -0.025485575 -0.22247182 -0.03143763 0.016993592 -0.030766295 0.022285871
0.14564666 -0.10961291 0.13371183 -0.02691297 -0.011084723 0.0340168 -0.35674614 -0.023194373
-0.10565442 0.26107243 -0.12112791 -0.044159673 -0.0019510039 -0.12307237 0.10262865 0.035898525
0.0004332546 -0.21133533 0.03506358 0.04395807 -0.002636019 -0.009835642 0.31375688 0.11496043
0.14033785 -0.05963186 -0.021500643 0.008276241 -0.0076009287 -0.004944708 -0.08424181 -0.009102761
0.1988725 -0.0059861518 0.011337892 0.12516887 0.010227434 0.07842928 0.39877594 -0.12790512
-0.08053729 -0.13018331 -0.044743877 0.02938962 0.008132805 0.004863286 0.15763584 -0.024976807
-0.16541557 0.13693337 0.13652435 0.05590905 -0.020279618 -0.015373417 -0.051109362 0.036318038
-0.0385059 -0.097857654 -0.009543727 0.0120978 -0.0034952287 0.017571842 -0.0045441184 0.0057944553
-0.01748902 0.0221959 -0.0022413214 -0.28223315 -0.0016964924 0.013069199 0.021848617 -0.03564937
-0.2669101 -0.12109542 0.25289086 -0.0019304027 -0.25379366 -0.17805044 -0.22611949 -0.03329608
-0.088881545 -0.059412137 -0.16666102 -0.022664752 0.0026996632 -0.17632452 0.097455606 0.05809659
-0.045965556 -0.3529463 -0.012079543 -0.3829667 -0.015767856 0.010569746 0.006097119 0.08044032
-0.32272398 -0.07486704 -0.27145672 -0.03609351 -0.019288432 -0.041298 0.007954707 -0.012604126
-0.24944621 -0.011942078 -0.010070206 0.0660061 -0.017572116 0.17743687 -0.28067985 -0.051105615
0.10688624 -0.13052286 0.084888816 0.06523812 0.008164932 -0.021082008 -0.19961828 0.03812621
-0.29960567 0.041586164 0.057062943 0.053500447 -0.017177105 0.016820071 -0.028609868 -0.010675568
-0.031892803 -0.06830154 -0.010014798 0.020968346 -0.12429567 -0.022447843 -0.016491313 -0.007256935
0.029938016 0.20696443 -0.0008077485 -0.6006119 -0.03891809 0.0014562232 -0.010998899 0.07208471
-0.23803842 0.047343843 0.35431343 0.025949636 -0.11803878 0.0013087397 -0.23672931 0.025293797
-0.09689196 -0.23939006 0.16874845 -0.013715675 0.001957375 -0.27717608 0.06577844 0.30121258
-0.029041976 -0.32470632 0.010418797 0.045017265 0.039374653 0.0008042742 -0.07119687 0.5065515
0.0673653 0.0068237497 0.006196413 0.033236302 0.045370888 0.036938693 -0.015855845 -0.0019957616
00000000: e810 183d 5a6b 54be fd0d 1d3c 6a5f 24be
00000010: 0841 273d 2bd1 8e3b a27e 283d cbab 94bc
00000020: 607b 51be de58 ecbd 000c 6ebd 8ba1 b1be
00000030: 5304 f7bd 08ac 8cbd 0c51 b6bd 2290 323d
00000040: 474f 2dbe d53a 5abe a141 25b9 2411 8b3c
00000050: 58c1 383c 36a5 43be 6a5a 9a3d 35ef 58bd
00000060: 1319 8fbc 16c2 1bbe c0a9 22bb 441c a93d
00000070: ffdf 6a3c de90 de3b 5dbb 27bd 7ad3 59be
00000080: ae22 55bc 9853 573d 94b6 383c 3fb0 5c3d
00000090: 57fb 0c3a c6d9 243d 9c51 8cbe 6c6e a93c
000000a0: 38d7 8fbe c190 823a 8de0 e4b8 8922 72be
000000b0: 7e55 0c3d 9e94 c53d f1bd e2bd 9442 10be
000000c0: e33d e63c cc8c 02be c05a 3f3e bfed 003d
000000d0: 0de5 e2ba 64fd 61bb bc15 1fbd 9c9f 8a3b
000000e0: 85be 6fbd 872e 82be e8a5 74be 8c55 d4bc
000000f0: 95e3 cebd 896a 943c 99d8 5b3c 0a04 9e3c
00000100: ba73 7f3c 8823 69bd 5196 943c 2579 bebc
00000110: 7a59 c53c 845a 8cbb 1dbf ea3c cac8 b63b
00000120: 3de6 db3c b99a c13c 20c7 d0bc a7cf 63be
00000130: bfc4 00bd 2536 8b3c 9909 fcbc dc90 b63c
00000140: 6624 153e bc7c e0bd c1eb 083e 9778 dcbc
00000150: b39c 35bc 3355 0b3d 6ea7 b6be 2002 bebc
00000160: 5861 d8bd 49ab 853e e911 f8bd c6e0 34bd
00000170: d4b8 ffba 5e0d fcbd f82e d23d 550a 133d
00000180: 7326 e339 4a68 58be d49e 0f3d 610d 343d
00000190: 0fc1 2cbb ac25 21bc bea4 a03e 6070 eb3d
000001a0: bab4 0f3e 8a40 74bd 1e22 b0bc 1299 073c
000001b0: 3611 f9bb 3807 a2bb f886 acbd bf23 15bc
000001c0: 3ca5 4b3e 7b27 c4bb 91c2 393c 452c 003e
000001d0: f890 273c 889f a03d 5c2c cc3e 8ff9 02be
000001e0: bcf0 a4bd c64e 05be 5b45 37bd 80c2 f03c
000001f0: 753f 053c 335c 9f3b 4a6b 213e 299c ccbc
00000200: b362 29be 4338 0c3e 0acd 0b3e e300 653d
00000210: 7121 a6bc c9e0 7bbc 0d58 51bd 39c2 143d
00000220: 5db8 1dbd 9869 c8bd 4b5d 1cbc da35 463c
00000230: 3510 65bb d3f2 8f3c d4e6 94bb 6adf bd3b
00000240: 2245 8fbc 2dd4 b53c 22e3 12bb dd80 90be
00000250: d75c deba 3220 563c dffb b23c 1305 12bd
00000260: 71a8 88be e000 f8bd e97a 813e 9105 fdba
00000270: 3ef1 81be db52 36be de8b 67be 7861 08bd
00000280: 8707 b6bd 245a 73bd 30a9 2abe 6eab b9bc
00000290: d5ec 303b 6a8e 34be ce96 c73d b1f6 6d3d
000002a0: 6146 3cbd 61b5 b4be 47e9 45bc 3614 c4be
000002b0: 972b 81bc ba2c 2d3c 57ca c73b e5bd a43d
000002c0: 143c a5be e453 99bd 60fc 8abe cad6 13bd
000002d0: c602 9ebc 1728 29bd 7654 023c 8981 4ebc
000002e0: d46e 7fbe b5a8 43bc 81fd 24bc 352e 873d
000002f0: 66f3 8fbc 03b2 353e 45b5 8fbe 1f54 51bd
00000300: 2ce7 da3d c9a7 05be 30da ad3d 909b 853d
00000310: 35c6 053c 2db4 acbc bc68 4cbe 3b2a 1c3d
00000320: ea65 99be 4156 2a3d d5ba 693d 4923 5b3d
00000330: 00b7 8cbc 3fca 893c 3e5f eabc 94e8 2ebc
00000340: 07a2 02bd aee1 8bbd 1b15 24bc cfc5 ab3c
00000350: ba8e febd 8ae4 b7bc ca18 87bc 95cb edbb
00000360: 9240 f53c 7cee 533e 16bf 53ba b4c1 19bf
00000370: 9368 1fbd bede be3a ba34 34bc 26a1 933d
00000380: 58c0 73be 9eeb 413d 9268 b53e 5594 d43c
00000390: 51be f1bd 048a ab3a 2b69 72be f034 cf3c
000003a0: 4b6f c6bd ab22 75be 65cc 2c3e b6b7 60bc
000003b0: 4e47 003b 06ea 8dbe d9b6 863d 8938 9a3e
000003c0: 70e9 edbc e83f a6be 9ab3 2a3c 0664 383d
000003d0: 5147 213d eed5 523a aacf 91bd 5cad 013f
000003e0: d2f6 893d c399 df3b 480b cb3b ca22 083d
000003f0: d3d6 393d 074d 173d 1ee4 81bc 53cb 02bb

module.LGEBs.0.phi_h.3.bias f4 [72]
0.0015508406 0.021247167 0.0077837636 0.049360655 -0.06612021 -0.014771739 -0.013708738 0.0147790015
0.019135255 -0.0086687235 -0.020999435 0.040699665 0.0019597406 -0.006691917 0.044243928 0.01330266
0.007479282 0.029724227 -0.035787027 0.039547306 -0.042389896 0.023730947 0.042135943 0.014224854
0.03260346 -0.017022107 -0.031536072 -0.022625668 -0.01676599 0.0061166845 -0.023205737 -0.029825104
0.02911809 -0.011982489 -0.03028216 -0.031051943 0.012431045 0.017508414 0.03950596 0.021730121
0.025840333 0.010695463 0.033390693 0.043809924 0.047668424 0.037052147 -0.019447584 -0.037334517
-0.04246394 0.010450456 0.0526707 0.009539171 0.039384797 0.01626051 -0.02830393 -0.017604362
-0.015229605 0.005832773 -0.0047126296 0.037467767 0.059662472 0.011265472 0.015113996 -0.010545056
0.015221342 0.031570673 0.0004897891 0.014583148 -0.023137918 -0.0033836549 -0.051871873 -0.0034606936
00000000: 9345 cb3a 8a0e ae3c f10e ff3b 662e 4a3d
00000010: 086a 87bd 2a05 72bc 9d9a 60bc a023 723c
00000020: 8ac1 9c3c 4307 0ebc 0207 acbc b1b4 263d
00000030: fe6e 003b de47 dbbb 1f39 353d 66f3 593c
00000040: c414 f53b 3980 f33c 6b95 12bd 5bfc 213d
00000050: 07a1 2dbd 6767 c23c bd96 2c3d 5d0f 693c
00000060: 358b 053d f271 8bbc f82b 01bd 7759 b9bc
00000070: d458 89bc 786e c83b f519 bebc c753 f4bc
00000080: 1089 ee3c 3452 44bc 4b12 f8bc a560 febc
00000090: 95ab 4b3c ce6d 8f3c 00d1 213d 5e03 b23c
000000a0: 1baf d33c 063c 2f3c aec4 083d 0972 333d
000000b0: f73f 433d fec3 173d 8a50 9fbc 14ec 18bd
000000c0: abee 2dbd 6438 2b3c 3bbd 573d 2f4a 1c3c
000000d0: f451 213d c334 853c a5dd e7bc 0637 90bc
000000e0: 9885 79bc d920 bf3b 676c 9abb cd77 193d
000000f0: a360 743d d092 383c b2a0 773c 2cc5 2cbc
00000100: f062 793c 4050 013d 3165 003a 28ee 6e3c
00000110: bb8b bdbc 4fc0 5dbb 9a77 54bd cecc 62bb
