logs/qg/pretrained/best-val-model.pt (torch, 959987 bytes, 117 tensors)

module.embedding.weight f4 [72, 8]
0	0xbe2def93	-0.16985922
1	0x3df7d40b	0.12100991
2	0x3b9362ee	0.0044978773
3	0xbd3998b2	-0.045311637
4	0x3c5a9e33	0.013343382
5	0x3d5a2bb1	0.053264324
6	0x3d188070	0.037231863
7	0xbce5f327	-0.028070046
8	0x3cab8d4e	0.020941403
9	0xbdbafde6	-0.091304585
10	0x3c1ab53a	0.009442622
11	0x3beecca8	0.0072875805
12	0x3c434886	0.011919146
13	0xbc48081a	-0.012208963
14	0x3d9bf8f3	0.07615843
15	0xbd3b970d	-0.04579835
16	0x3d708d21	0.05872834
17	0x3dd7955d	0.10526536
18	0xbd030741	-0.03198934
19	0xbd259a83	-0.040430557
20	0xbcb3e037	-0.0219575
21	0xbd4634ac	-0.048390076
22	0xbd581387	-0.052752998
23	0xbd62e93e	-0.05539822
24	0xbc4b0cf4	-0.012393225
25	0xbdab9bca	-0.08379324
26	0xbc01533d	-0.007893381
27	0xbc282454	-0.010262568
28	0xbca56702	-0.02019072
29	0x3c70baa6	0.014692938
30	0xbd37abbd	-0.044841517
31	0x3cb135e1	0.021632137
32	0xbe2dc9c7	-0.16971503
33	0x3e126c55	0.14299138
34	0xbb71510c	-0.003682199
35	0xbc3e5bce	-0.011618568
36	0x3d090604	0.033453003
37	0x3b40122e	0.002930771
38	0x3cabc5b1	0.02096829
39	0x3c7028f1	0.014658199
40	0xbcefcef6	-0.029273491
41	0x3d3829a6	0.044961594
42	0x3d62da58	0.05538401
43	0x3cb90ea6	0.022589993
44	0x3d50e10b	0.050995868
45	0x3d398ade	0.04529845
46	0x3d539b7e	0.05166196
47	0x3d5d7b85	0.054072876
48	0x3e174270	0.14771438
49	0x3db360a9	0.08758671
50	0xbd6d39d7	-0.05791649
51	0xbd8e81f5	-0.06958381
52	0xbd80527b	-0.06265732
53	0xbd13af27	-0.03605571
54	0xbd75dba7	-0.06002393
55	0xbd933930	-0.07188642
56	0xbc25facf	-0.010130598
57	0xbd7f3564	-0.062306777
58	0x3d8667ad	0.06562743
59	0x3d164c17	0.03669366
60	0x3d8430cb	0.06454619
61	0x3d917ac4	0.07103494
62	0x3d9a4e15	0.07534424
63	0x3d962a72	0.073323146
64	0xbda0b350	-0.07846701
65	0x3e23c615	0.15993531
66	0x3c875ea5	0.016524622
67	0x3da27f00	0.079343796
68	0x3c76f55c	0.015073147
69	0xbcedb89c	-0.029018693
70	0x3c77df72	0.015128957
71	0x3d6d8773	0.057990503
72	0xbe0ecb8b	-0.13944833
73	0xbe5ec60d	-0.21755238
74	0x3d66a85f	0.056312915
75	0x3dd57afb	0.10423847
76	0x3cfb528e	0.030679014
77	0x3d92cd38	0.071680486
78	0x3de88f8d	0.11355505
79	0x3c64a7d3	0.013956028
80	0x3e2759b1	0.16342808
81	0x3dfad9cf	0.12248575
82	0xbca81bf4	-0.020521142
83	0xbaf0cd83	-0.0018371794
84	0xbabd16b3	-0.001442632
85	0xbcc81256	-0.024422806
86	0x3d2d843c	0.042362437
87	0xbc84e454	-0.016222157
88	0x3da9863b	0.082775556
89	0xbf106dce	-0.5641755
90	0x3d5ded3a	0.054181315
91	0xbda8b2ad	-0.08237205
92	0x3adc299b	0.0016797067
93	0xbe19d630	-0.15023112
94	0x3dbc0a28	0.09181625
95	0x3da7024b	0.08154734
96	0x3c93ca06	0.018040668
97	0xbdb03d8f	-0.08605491
98	0x3c011a88	0.007879861
99	0xbcb9a2f6	-0.022660714
100	0xbc073c13	-0.008254069
101	0x3c1d0ccd	0.0095855715
102	0xbcdfd6f0	-0.02732417
103	0x3c53ca1d	0.0129266055
104	0x3bfa7f7a	0.007644591
105	0xbd384b5c	-0.044993743
106	0x3d331a69	0.04372636
107	0x3ca868a8	0.020557716
108	0x3c9ce9d8	0.019154474
109	0x3d27b0f6	0.040940247
110	0x3d36403e	0.04449486
111	0xbcca9d4f	-0.024733214
112	0x3e033b6f	0.12815641
113	0x3d2c6eb9	0.04209778
114	0x3b140dfc	0.0022591343
115	0xbc2332e6	-0.009960866
116	0x3c95d0db	0.018288067
117	0x3c0b55eb	0.008504371
118	0xbd5fdc3e	-0.0546534
119	0x3c774517	0.015092156
120	0x3d756026	0.059906147
121	0x3e88a439	0.26687792
122	0x3c1ac87b	0.009447212
123	0x3bfd4530	0.007729195
124	0x3c90c6c7	0.01767291
125	0x3d29c9e9	0.041452322
126	0x3d089fec	0.03335564
127	0x3c3d971c	0.011571672
128	0x3ce2441e	0.027620371
129	0x3db40cf4	0.08791533
130	0xbd88539f	-0.066565745
131	0xbd8f2083	-0.06988623
132	0xbe5c4e48	-0.21514237
133	0xbd3773cc	-0.044788167
134	0x3e87a31a	0.26491624
135	0x3e801f76	0.25024003
136	0x3e17e76e	0.14834377
137	0x3e3873ff	0.18012999
138	0x3e30f4f8	0.17280948
139	0xbc138faa	-0.00900642
140	0xbc02ac92	-0.007975714
141	0x3d1b4afd	0.03791331
142	0xbe505acb	-0.20347135
143	0xbe492877	-0.19644342
144	0xbd1ed542	-0.038777597
145	0xbe45a3c0	-0.19300747
146	0x3dab7c6b	0.0837334
147	0x3dddd2de	0.10831235
148	0x3da793e3	0.08182504
149	0x3d73de53	0.059538197
150	0x3d622581	0.055211548
151	0x3df2ff6c	0.11865124
152	0x3d84d6e2	0.06486298
153	0x3e03ebac	0.1288287
154	0xbd377508	-0.044789344
155	0xbcb68e38	-0.022284612
156	0xbd3e3b1a	-0.046443082
157	0xbd9941f9	-0.074832864
158	0xbc9f7f56	-0.019469898
159	0xbdec4c99	-0.11538047
160	0x3e9bc3ad	0.30422726
161	0x3eba1e84	0.36351407
162	0xbd6a3f1a	-0.057189085
163	0xbd57d8bb	-0.052696925
164	0xbcb3e8e4	-0.021961637
165	0xbd328461	-0.043583278
166	0xb90a503b	-0.00013190594
167	0xbd48264c	-0.048864648
168	0xbd81cc04	-0.06337741
169	0x3bbef879	0.00582796
170	0xbd1e85d3	-0.038701843
171	0xbd08cec9	-0.03340033
172	0xbd16b734	-0.03679581
173	0xbd9c18f4	-0.07621947
174	0xbd700b00	-0.05860424
175	0xbcd87fbc	-0.026428096
176	0xbd849673	-0.064740084
177	0x3c58afdc	0.013225522
178	0x3ca13d60	0.019682586
179	0xbc832339	-0.016008006
180	0x3a91826a	0.0011101488
181	0x3d4a3bf4	0.049373582
182	0x3c695d76	0.014243474
183	0x3c3c104c	0.011478495
184	0x3cca9aca	0.024732012
185	0xbde8e1c2	-0.11371185
186	0x3d843ff0	0.064575076
187	0x3d7341c3	0.059388887
188	0x3d8a0dd0	0.06740916
189	0x3d760d4f	0.060071286
190	0x3d30fb5b	0.04320846
191	0x3d8e7e90	0.06957734
192	0xbe0d079b	-0.13772433
193	0xbe788c44	-0.24272257
194	0x3d886225	0.066593446
195	0xbdf872e4	-0.12131289
196	0x3a7634f8	0.0009392048
197	0xbdfccdfe	-0.123439774
198	0x3e53e0d8	0.2069124
199	0x3e3c04c2	0.1836119
200	0x3c5a19c4	0.013311807
201	0x3e68a6ec	0.22719926
202	0x3cbeeacd	0.023305321
203	0x3ce0585c	0.027385883
204	0x3d450283	0.0480981
205	0x3d053013	0.03251655
206	0x3cce52e5	0.025186012
207	0x3b2f1360	0.002671443
208	0x3d897a6b	0.067128025
209	0xbe4a98c6	-0.19784841
210	0xbc293a54	-0.010328848
211	0xbbd52ba0	-0.0065054446
212	0xbcb11fc7	-0.021621598
213	0xbcddf322	-0.027093474
214	0xbd525391	-0.051349226
215	0xbd856f88	-0.065154135
216	0x3e92d2b2	0.28676373
217	0x3eb8b91b	0.36078724
218	0x3d06c6d7	0.032904472
219	0x3d91a4b2	0.07111491
220	0x3d7ea362	0.062167533
221	0x3d8aa59b	0.06769868
222	0xbe933c16	-0.2875678
223	0xbe8d8097	-0.2763717
224	0x3e1377bd	0.14401145
225	0x3d7af188	0.0612655
226	0xbd55c5e0	-0.05219066
227	0xbdbd2bf7	-0.09236901
228	0xbd75f85e	-0.060051315
229	0xbd779d80	-0.060452938
230	0xbb818c6b	-0.0039535067
231	0xbdd76229	-0.105167694
232	0x3d5c3f36	0.05377122
233	0x3db5bfc7	0.08874469
234	0xbc8e960a	-0.017405529
235	0xbc5792b5	-0.013157536
236	0xbd10dc6d	-0.035366464
237	0xbbc8a31a	-0.006122959
238	0xbd714161	-0.05890024
239	0xbbcf3ec6	-0.006324622
240	0xbc94760f	-0.018122701
241	0x3d41dc9b	0.047329526
242	0xbbb817f4	-0.00561809
243	0x3ca7acdc	0.020468168
244	0xbb3394ae	-0.0027401852
245	0x3b647f3a	0.0034865872
246	0xbcc414bd	-0.02393567
247	0x3cf31ef3	0.029677844
248	0x3e4ee247	0.20203505
249	0x3de15506	0.11002545
250	0xbcff8a0e	-0.03119376
251	0x3cd1635e	0.025560077
252	0xbcd24140	-0.02566588
253	0xbc6c1232	-0.014408635
254	0xbcafb760	-0.021449745
255	0xbc192c5a	-0.009348953

module.embedding.bias f4 [72]
0	0xbc99d07c	-0.01877617
1	0x3cc473a9	0.023980932
2	0xbcb487b6	-0.022037368
3	0x3ca5675b	0.020190885
4	0x3cd91eed	0.026504004
5	0xbccdb04d	-0.02510848
6	0xbd66ac79	-0.056316826
7	0xbd53b2e8	-0.05168429
8	0x3bb5736b	0.0055374405
9	0xbcde2e37	-0.027121646
10	0x3c23a64f	0.0099883815
11	0xbe1a06e7	-0.15041696
12	0x3d1942db	0.037417274
13	0x3bcd6399	0.0062679765
14	0xbc84e5fb	-0.016222944
15	0x3d0c9bc8	0.034328252
16	0x3b84025f	0.004028603
17	0xbcc0363d	-0.023463363
18	0xba7792d0	-0.0009444179
19	0x3ce74e53	0.02823559
20	0x3cb729e8	0.02235885
21	0x3cbc17fe	0.02296066
22	0xbcf094d4	-0.029367842
23	0xbc5ec548	-0.01359684
24	0xbdf40db6	-0.11916678
25	0xbcd15c92	-0.025556836
26	0x3d2afaf7	0.041743245
27	0xbc569854	-0.013097841
28	0x3d6e0016	0.05810555
29	0x3cfae598	0.030627057
30	0xbcdd5ae2	-0.027020875
31	0x3cc17dc0	0.023619533
32	0xbd10059d	-0.035161603
33	0x3c74d06a	0.014942268
34	0x3c1851c2	0.009296836
35	0xbd19a88a	-0.037514247
36	0xbc8a5f8a	-0.01689126
37	0x3d6d3311	0.05791003
38	0x3b4470d3	0.0029974475
39	0x3d001ef2	0.03127951
40	0xbd87b9ad	-0.06627212
41	0x3c3d6039	0.011558586
42	0x3c38b5f8	0.0112738535
43	0xbc06f74d	-0.008237672
44	0x3d481b19	0.048853967
45	0xbca08587	-0.01959492
46	0x3d217891	0.03942162
47	0xbd0467e9	-0.03232566
48	0x3ca661eb	0.020310363
49	0xbcb88b60	-0.022527397
50	0x3ca5840d	0.020204568
51	0x3c024c5c	0.007952776
52	0xbd424dd9	-0.047437523
53	0xbdb34a62	-0.08754422
54	0x3dca94b7	0.09891646
55	0xbd791286	-0.06080868
56	0x3d0e3525	0.03471865
57	0xbb80e9ed	-0.003934136
58	0x3d03a0df	0.03213584
59	0x3d0afc93	0.03393228
60	0x3c3d7fb7	0.011566094
61	0xbd0b8830	-0.034065425
62	0xbd70564c	-0.05867605
63	0xbd840727	-0.06446677
64	0x3bc3189f	0.005953863
65	0xbd3d11de	-0.046159618
66	0xbcd3da9a	-0.025861073
67	0x3b95b891	0.004569121
68	0x3dd9146b	0.105995975
69	0xbc5869e9	-0.013208845
70	0x3d002c44	0.031292215
71	0xbc76ef8e	-0.015071763

module.LGEBs.0.phi_e.0.weight f4 [72, 146]
0	0xbdc5d75a	-0.09660216
1	0xbdb25888	-0.08708292
2	0x3c243e66	0.010024643
3	0x3e4c0743	0.19924645
4	0xbe666383	-0.22498898
5	0xbe0e20e6	-0.13879737
6	0x3e2cfece	0.16894075
7	0xbe335812	-0.17514065
8	0xbe0f6c53	-0.14006166
9	0xbdded7cf	-0.10881006
10	0xbb4bc46c	-0.0031092418
11	0xbd472342	-0.04861761
12	0x3d5931bb	0.053025942
13	0x3d43c73b	0.047797423
14	0xbcecc29f	-0.028901396
15	0x3e3b2942	0.18277457
16	0x3dcfd7ed	0.101486064
17	0x3ca498e9	0.020092444
18	0xbe1f4bae	-0.15556213
19	0x3da7de2f	0.08196675
20	0x3de23eb3	0.11047115
21	0xbe8b5ba2	-0.27218348
22	0x3b4d434b	0.0031320627
23	0xbe6e6002	-0.23278812
24	0x3c94ad1f	0.018148957
25	0xbe8da539	-0.27665117
26	0x3e29c95f	0.16580723
27	0x3d7a46f6	0.06110283
28	0x3e4f09eb	0.20218627
29	0x3e70a972	0.23502138
30	0x3c815289	0.015786426
31	0x3e00d345	0.12580593
32	0xbd9ef48e	-0.07761489
33	0xbe120978	-0.14261425
34	0xbe2d0745	-0.16897304
35	0x3e11cc01	0.14237978
36	0x3d4ef72f	0.0505287
37	0x3bc3cf92	0.005975672
38	0x3e0bcaac	0.13651532
39	0x3e155923	0.14584784
40	0x3e877f5b	0.26464352
41	0xbcfb09a5	-0.030644247
42	0x3b49312e	0.003069948
43	0xbc0161bd	-0.007896838
44	0x3db252b2	0.08707179
45	0xbc8d6d5e	-0.017264064
46	0x3dfce225	0.12347821
47	0xbd5f6b06	-0.054545425
48	0x3e860f44	0.26183522
49	0xbd57c737	-0.05268022
50	0x3db0c736	0.086317465
51	0x3d89bdff	0.06725692
52	0x3e0a4b45	0.13505276
53	0x3ec1e204	0.3786775
54	0xbe01859a	-0.12648621
55	0x3e4715fd	0.19441982
56	0x3e26aa7e	0.16275975
57	0xbcaa48be	-0.02078664
58	0x3edad808	0.42742944
59	0xbe16ee2d	-0.14739294
60	0x3e81fcae	0.25388092
61	0x3df992df	0.121862166
62	0xbe046224	-0.12928063
63	0x3db6109a	0.08889885
64	0xbdaea40e	-0.08527385
65	0xbcb4aaa2	-0.02205402
66	0xbd36954e	-0.04457598
67	0xbdf09aad	-0.11748252
68	0xbe0d353c	-0.13789839
69	0xbd67c455	-0.05658372
70	0xbc4d7bed	-0.012541753
71	0x3cce2fca	0.025169272
72	0xbd6dc335	-0.058047492
73	0x3d9567ec	0.07295212
74	0x3ebcff16	0.36913365
75	0xbe9cc377	-0.30617878
76	0x3d14519a	0.036210634
77	0xbea219c7	-0.31660292
78	0x3e722a2d	0.23648901
79	0xbe2aeb8d	-0.16691418
80	0xbe3f4f0a	-0.18682495
81	0xbd73e834	-0.059547618
82	0x3e8f6d1a	0.28012925
83	0xbe2c5096	-0.16827616
84	0xbdaf768b	-0.08567532
85	0xbd5340bd	-0.05157541
86	0x3d189dd6	0.0372599
87	0x3e612d6c	0.21989983
88	0x3d0bd653	0.034139942
89	0xbcb7c3da	-0.022432256
90	0xbe5b7d52	-0.21434525
91	0x3e25f063	0.16204982
92	0x3ea0a3f9	0.313751
93	0x3d91ff58	0.07128781
94	0x3d177906	0.03698065
95	0xbdef2423	-0.116768144
96	0xbe62ff0c	-0.22167605
97	0x3e1900a8	0.14941657
98	0x3d99e4c7	0.07514339
99	0x3dec8c3c	0.11550185
100	0x3e8a3e96	0.27000874
101	0xbd686743	-0.056739103
102	0xbd329131	-0.043595497
103	0x3e85f530	0.26163626
104	0x3e193fc6	0.14965734
105	0xbea36c70	-0.3191867
106	0xbd8491c3	-0.06473114
107	0xbbae7c49	-0.0053248745
108	0x3d34136a	0.043963827
109	0xbd8f911a	-0.07010098
110	0xbd8888c0	-0.06666708
111	0x3e050cf5	0.12993224
112	0x3e376be6	0.17912254
113	0x3d878ef5	0.06619064
114	0xbbb8198b	-0.0056182793
115	0xbdbacdd0	-0.09121287
116	0x3dd46a5a	0.103718475
117	0xbdab7909	-0.08372695
118	0xbded34a7	-0.11582308
119	0x3cf02209	0.029313104
120	0x3e76b3b0	0.24091983
121	0xbdf3c0e0	-0.11902022
122	0x3d527d55	0.051389057
123	0xbd8e01b9	-0.06933922
124	0xbe4dc164	-0.20093304
125	0xbceb4010	-0.02871707
126	0xbd4a85b9	-0.049443934
127	0x3e78f9c8	0.24314034
128	0x3e610ee2	0.21978334
129	0xbe039f3f	-0.12853716
130	0x3e67f0e7	0.2265049
131	0x3d5f9977	0.054589715
132	0xbd901d2a	-0.070368126
133	0xbcd931d2	-0.026513014
134	0xbc547ce1	-0.012969227
135	0xbdc0dec6	-0.09417491
136	0xbcaca4cf	-0.02107468
137	0xbc9e105c	-0.01929491
138	0x3dd96c2a	0.10616334
139	0xbd5b83e9	-0.053592596
140	0xbd5b1221	-0.053484086
141	0xbe6c51d9	-0.23078097
142	0x3ecd5696	0.40105122
143	0xbd3f1c46	-0.046657823
144	0xbe826d79	-0.25474146
145	0x3ecdf19c	0.40223396
146	0x3b66502b	0.0035142999
147	0xbd30a15d	-0.043122638
148	0x3cfbef5d	0.030753786
149	0xbcb7a79f	-0.022418795
150	0xbc67207c	-0.014106866
151	0xbc8b6e8c	-0.017020486
152	0x3bc58fb9	0.006029096
153	0xbd3fb084	-0.046799198
154	0xbcf70e1a	-0.030158091
155	0xbcaa6ba9	-0.02080329
156	0x3c53e353	0.012932616
157	0xbd88b05b	-0.06674262
158	0x3d15d8f3	0.036583852
159	0x3d2c2081	0.042023186
160	0x3b49e288	0.003080519
161	0x3c15e11d	0.0091479095
162	0xbded9b89	-0.116019316
163	0x3caf0aae	0.021367397
164	0xbd20baf6	-0.0392408
165	0x3c841eab	0.016127905
166	0x3b64fc23	0.0034940324
167	0x3b3e5fc1	0.0029048773
168	0x3adac20d	0.0016689912
169	0x3b03c19c	0.0020104414
170	0xbd1415ec	-0.03615372
171	0xbdbd09f5	-0.09230415
172	0x3d10738a	0.035266437
173	0x3deaf413	0.11472335
174	0xbb502aaa	-0.003176371
175	0xbd52b9cc	-0.05144672
176	0xbcc9cb8c	-0.024633192
177	0xbcf8ee87	-0.030387176
178	0x3c93a90d	0.018024946
179	0xbc85ed0e	-0.016348388
180	0xbc394c42	-0.011309685
181	0x3b482afe	0.0030543203
182	0xbdbab104	-0.09115794
183	0x3d836ff3	0.06417837
184	0xbceaa9e8	-0.02864547
185	0xbcfdb0a1	-0.030968012
186	0xbc63a0c0	-0.013893306
187	0xbd02945e	-0.031879775
188	0xbd823452	-0.063576356
189	0x3cfdae7f	0.030966995
190	0x3c417e88	0.011809953
191	0xbcf18e2a	-0.029486734
192	0xbdde54bc	-0.108560055
193	0x3c6cf768	0.014463283
194	0xbd056cb6	-0.032574378
195	0xbd340925	-0.043954033
196	0x3cbe61a8	0.023239926
197	0xbd254440	-0.04034829
198	0xbd565300	-0.05232525
199	0x3c382265	0.011238669
200	0x3d0e23ba	0.03470204
201	0x3c11ce17	0.008899233
202	0xbd9a6156	-0.075380966
203	0xbb44cfb0	-0.0030031018
204	0xbcc2bce2	-0.023771707
205	0xbcba9f3f	-0.022781013
206	0xbc93e671	-0.018054219
207	0x3d86cdca	0.0658222
208	0x3dcfbac9	0.10143048
209	0xbc095611	-0.008382336
210	0x3d14e6b3	0.036352824
211	0x3c32fd25	0.010924612
212	0x3c2171d8	0.009853803
213	0x3cea91cd	0.028633976
214	0xbd20fa94	-0.03930147
215	0xbba7843f	-0.0051122005
216	0x3c0b1b6a	0.008490423
217	0x3abefb5b	0.0014570759
218	0x3db366e2	0.08759858
219	0x3c024ab2	0.007952379
220	0x3cd0a954	0.025471367
221	0x3d1121b0	0.035432518
222	0x3d7dee6f	0.061994966
223	0xbd4d2a5f	-0.050089236
224	0x3db44a68	0.08803254
225	0xbd569c5b	-0.052395206
226	0xbd7b0fb2	-0.061294265
227	0xbb85c95f	-0.004082843
228	0x3cd6358b	0.026148578
229	0xbe74e2cc	-0.23914641
230	0x3b019e02	0.0019778018
231	0x3c9609df	0.018315254
232	0x3d480d24	0.048840657
233	0x3da5361a	0.0806696
234	0xbd650dee	-0.055921488
235	0xbd1cdbe1	-0.03829563
236	0xbdbb1031	-0.09133948
237	0x3cb10334	0.021607973
238	0x3d54a1ae	0.051912002
239	0x3d086df9	0.033308003
240	0x3da89388	0.08231264
241	0xbd1c2f14	-0.038130835
242	0xbe0ad25c	-0.13556808
243	0x3ddee5d1	0.10883678
244	0x3cb11938	0.02161847
245	0x3e02d510	0.1277659
246	0xbc8859ce	-0.016644385
247	0x3d56f441	0.052479032
248	0x3c4c16d7	0.012456617
249	0x3da5796c	0.080798
250	0x3d1b7cf4	0.03796096
251	0xbd406b4c	-0.046977326
252	0x3cfbd67b	0.03074192
253	0x3cecc421	0.028902115
254	0x3cb03853	0.021511232
255	0xbde30469	-0.110848255

module.LGEBs.0.phi_e.1.weight f4 [72]
0	0x3e12bdfb	0.14330284
1	0x3ecce1a6	0.40015906
2	0x3e88c498	0.2671249
3	0x3ea65fa6	0.3249485
4	0x3c0b80b7	0.008514575
5	0x3c9523eb	0.018205604
6	0x3e8d6645	0.27617088
7	0x3e8ab0c9	0.27088
8	0x3bed071a	0.0072335126
9	0x3e4901a2	0.19629529
10	0x3f0445a5	0.5166877
11	0x3b34f565	0.0027612087
12	0x3dee97e5	0.11650065
13	0x3e26bf54	0.16283923
14	0x3ed80dae	0.42197937
15	0x3e524055	0.20532353
16	0x3e31b4b5	0.1735409
17	0x3e97476e	0.29546684
18	0x3e50334d	0.2033207
19	0xbc0369b8	-0.008020811
20	0xbbc37789	-0.0059651774
21	0x3ca4c063	0.020111268
22	0x3cb1f178	0.021721587
23	0x3ad5e04d	0.0016317457
24	0x3ebea351	0.37233976
25	0x3e88b0fd	0.2669753
26	0x3b2b720a	0.0026160502
27	0x3da4d241	0.08047915
28	0x3e439e9a	0.1910347
29	0x3e9210f7	0.28528568
30	0x3e8411de	0.25794882
31	0x3c91dd41	0.017805697
32	0x3b7b5a4f	0.0038353389
33	0x3e334bca	0.1750938
34	0x3e3b1419	0.18269385
35	0x3c74de20	0.014945537
36	0x3e8c6810	0.27423143
37	0xba6c601f	-0.00090170087
38	0x3e7d43b1	0.24732853
39	0x3ea5d3b2	0.32388073
40	0x3e344676	0.17605004
41	0x3e933954	0.28754675
42	0x3e7380d6	0.23779616
43	0x3eb7e04e	0.35913318
44	0x3e48c7c8	0.1960746
45	0x3e61a578	0.22035778
46	0x3c1ad7d9	0.009450876
47	0xbbbcd7c8	-0.005763028
48	0x3eb4b401	0.35293582
49	0x3eb42a43	0.35188493
50	0x3ee1ace1	0.4407721
51	0x3e83acca	0.25717765
52	0x3e99fb86	0.3007471
53	0x3b4281dc	0.0029679453
54	0x3ca7b869	0.020473676
55	0x3c543b24	0.012953553
56	0x3eaf2b1c	0.34212577
57	0x3c8e8ca0	0.01740104
58	0x3c80fe8e	0.015746381
59	0x3e60e5b1	0.2196262
60	0x3e10fc7a	0.14158812
61	0x3e463b07	0.19358455
62	0x3e1015ec	0.14070863
63	0x3e3e31c8	0.18573678
64	0x3ee03180	0.43787766
65	0x3ed7466f	0.42045924
66	0x3ebb14e1	0.36539367
67	0x3ea4465e	0.32084936
68	0x3c11f718	0.008909009
69	0x3c57ad96	0.013163945
70	0x3e8ea1f9	0.2785795
71	0x3e2abcc4	0.16673571

module.LGEBs.0.phi_e.1.bias f4 [72]
0	0xbe780137	-0.24219213
1	0xbe180b97	-0.14848171
2	0xbe34e9a9	-0.1766726
3	0xbe2db26f	-0.16962598
4	0xbd05a213	-0.03262527
5	0xbd9f1765	-0.07768134
6	0x3e27eb18	0.16398275
7	0xbd20dd76	-0.0392737
8	0xbda462a0	-0.08026624
9	0x3df22b1a	0.11824627
10	0x3de270dd	0.11056683
11	0xbd39da26	-0.04537406
12	0xbe9614de	-0.29312795
13	0xbdb85c23	-0.09001949
14	0xbe178c78	-0.14799678
15	0xbd6dc00d	-0.058044482
16	0xbe060b6a	-0.13090292
17	0x3b584a45	0.0033003252
18	0x3dacc2e3	0.08435609
19	0xbd8d5d48	-0.069025576
20	0xbd3d53c8	-0.04622248
21	0xbd8bc204	-0.06824115
22	0xbdb1444e	-0.08655606
23	0xbc970160	-0.018433273
24	0xbe1dee8f	-0.15423034
25	0xbe13af74	-0.14422399
26	0xbd1ec292	-0.038759775
27	0xbdeff48f	-0.11716568
28	0xbc87bc05	-0.016569147
29	0xbe11b387	-0.1422864
30	0xbe3c23b8	-0.18373
31	0xbd833aeb	-0.06407722
32	0xbd56a3ae	-0.05240219
33	0xbe2592a8	-0.16169226
34	0xbe47bcad	-0.19505568
35	0xbdc9a6a1	-0.09846235
36	0xbda10f31	-0.07864226
37	0xbc89b42d	-0.016809547
38	0xbd95c038	-0.073120534
39	0xbcf37186	-0.029717218
40	0xbd37d9e3	-0.044885527
41	0xbe249f63	-0.16076426
42	0xbe593ecb	-0.2121536
43	0xbe02577a	-0.12728682
44	0xbe462773	-0.19350986
45	0xbebeb8ba	-0.3725031
46	0xbd225499	-0.03963146
47	0xbd6be012	-0.057586737
48	0xbe02bcb1	-0.12767293
49	0xbdf22deb	-0.118251644
50	0x3e01d2b1	0.12678029
51	0xbdda0d34	-0.106470495
52	0x3da84554	0.08216348
53	0xbd96dd22	-0.073663965
54	0xbdb0daa1	-0.0863545
55	0xbd59c5fd	-0.053167332
56	0xbc7770ad	-0.015102548
57	0xbd9445fe	-0.072399125
58	0xbd9e1e46	-0.07720618
59	0xbe02cd6d	-0.12773676
60	0xbd9cdcfb	-0.07659336
61	0x3d593705	0.053030986
62	0xbe083f7c	-0.13305467
63	0xbe65914b	-0.22418706
64	0xbd41fde3	-0.047361266
65	0x3dcc5fc7	0.099792056
66	0xbe2a8cf7	-0.16655336
67	0xbe2960ea	-0.16540876
68	0xbdcfa7b4	-0.10139409
69	0xbd810b9e	-0.06301044
70	0xbe6d8d32	-0.23198393
71	0xbcce059f	-0.025149165

module.LGEBs.0.phi_e.1.running_mean f4 [72]
0	0xbd80b715	-0.0628492
1	0xbf4ccec0	-0.80002975
2	0x3f15857c	0.58406806
3	0xbde0cc66	-0.10976486
4	0xbdb69cc8	-0.089166224
5	0xbdb4f770	-0.088362575
6	0x3f483d17	0.78218216
7	0xbbbfbf55	-0.005851666
8	0xbdf89471	-0.12137688
9	0x3f0c22b4	0.5474045
10	0x3f315900	0.6927643
11	0xbd65a6ba	-0.056067206
12	0xbe800454	-0.25003302
13	0xbea7f030	-0.32800436
14	0xbf51ce40	-0.8195534
15	0xbe9c4066	-0.30517882
16	0xbee8fb70	-0.45504332
17	0xbee2d381	-0.4430199
18	0xbeca46c5	-0.39507118
19	0x3e44b509	0.19209684
20	0x3d3b6d38	0.045758456
21	0x3d8fb16b	0.07016262
22	0xbdf481f8	-0.11938852
23	0x3d4d7374	0.050158933
24	0xbf407e7f	-0.7519302
25	0xbf15f892	-0.58582413
26	0xbd5b0918	-0.05347547
27	0xbda0e625	-0.078563966
28	0x3e2b4c4f	0.16728328
29	0xbf337c94	-0.70111966
30	0x3e8bde75	0.2731816
31	0xbde04f87	-0.10952669
32	0x3eb3c77c	0.35113132
33	0x3d3b65ea	0.04575149
34	0xbee0af58	-0.43883777
35	0xbb7bbbe2	-0.0038411547
36	0xbe82d9ab	-0.25556692
37	0x3d8fbb4d	0.07018147
38	0x3d4b9012	0.049697943
39	0xbf1a3273	-0.6023323
40	0xbed3490d	-0.4126667
41	0xbf731661	-0.9495602
42	0x3ee78d47	0.45224974
43	0xbf3cb2b9	-0.7371021
44	0xba910e05	-0.00110668
45	0xbeca334f	-0.3949227
46	0xbdcfae2e	-0.10140644
47	0xbd658562	-0.056035407
48	0x3d6d9ca5	0.058010716
49	0xbf3c3102	-0.7351228
50	0xbcc32e6d	-0.023825848
51	0xbed1f0ed	-0.41004124
52	0x3e67653c	0.22597212
53	0xbe307916	-0.1723369
54	0xbe58cb46	-0.21171293
55	0xbce1937a	-0.027536143
56	0x3ed79adb	0.42110333
57	0x3e4cd6ab	0.20003764
58	0xbee32d53	-0.44370517
59	0xbf239979	-0.63906056
60	0xbd9f9936	-0.077928945
61	0x3f032a12	0.5123607
62	0xbf1a3eeb	-0.60252255
63	0x3f25cea4	0.64768434
64	0xbf21cd03	-0.6320345
65	0x3f0fb704	0.56138635
66	0xbf61a47e	-0.8814162
67	0xbf6896ce	-0.9085511
68	0xbbd35b33	-0.006450081
69	0xbdd41b9f	-0.10356831
70	0x3e788972	0.24271181
71	0xbee848c3	-0.45368013

module.LGEBs.0.phi_e.1.running_var f4 [72]
0	0x3e5944dd	0.21217676
1	0x3fa0e4b6	1.2569797
2	0x3f865461	1.04945
3	0x3d4f2cd6	0.05057987
4	0x3bb78639	0.0056007174
5	0x3c92ec51	0.01793495
6	0x3f8d7b57	1.1053265
7	0x3d30a300	0.0431242
8	0x3cd33d41	0.025786044
9	0x3f701830	0.9378691
10	0x3fad88ae	1.3557336
11	0x3bc52d6c	0.0060173776
12	0x3d4282a4	0.04748787
13	0x3d5f937b	0.054584008
14	0x3fac49a3	1.3459972
15	0x3d7b57f6	0.061363183
16	0x3d9558eb	0.072923504
17	0x3e365471	0.1780565
18	0x3e420332	0.18946531
19	0x3d6ec5c8	0.058294088
20	0x3c6e7ffc	0.014556881
21	0x3bac22b3	0.00525316
22	0x3ccfce07	0.025366796
23	0x3cac0a16	0.021000903
24	0x3fadc827	1.3576707
25	0x3f9a4f25	1.2055403
26	0x3b23a4cf	0.002497006
27	0x3d02fbc3	0.03197838
28	0x3dac32a8	0.084080994
29	0x3fa0e9b4	1.257132
30	0x3e4646b6	0.19362912
31	0x3cb326a6	0.021869015
32	0x3e0fb1f9	0.14032735
33	0x3cb12431	0.021623703
34	0x3d32aa1e	0.043619268
35	0x3d8641b1	0.065554984
36	0x3e944a3f	0.28962895
37	0x3cbb55cb	0.022868058
38	0x3d0b084f	0.03394347
39	0x3f146973	0.579734
40	0x3df96b59	0.12178678
41	0x3f7ba178	0.98293257
42	0x3ea7d552	0.32779938
43	0x3f7b22c1	0.98099905
44	0x3cb2d6c5	0.021830926
45	0x3d6cc9a9	0.057809506
46	0x3c9967c1	0.018726232
47	0x3c7b0834	0.01532178
48	0x3d17e25b	0.037081104
49	0x3f67e34f	0.9058122
50	0x3e120bfc	0.14262384
51	0x3f429629	0.76010376
52	0x3e8b0633	0.27153167
53	0x3c8a8b97	0.016912265
54	0x3da1101d	0.078644015
55	0x3b0cd803	0.0021491058
56	0x3dfebc79	0.12438292
57	0x3d3e4c7e	0.046459667
58	0x3d9b067c	0.07569596
59	0x3f5b3adc	0.8563669
60	0x3d71cfc4	0.05903603
61	0x3e99615d	0.29957095
62	0x3f07a5f8	0.52987623
63	0x3f971239	1.1802436
64	0x3f866df1	1.0502301
65	0x3f2b3001	0.66870123
66	0x3fa8b328	1.3179674
67	0x3fafa77a	1.3722985
68	0x3c0923ed	0.008370382
69	0x3c911c57	0.017713709
70	0x3e44e2da	0.19227162
71	0x3df9ac5f	0.1219108

module.LGEBs.0.phi_e.3.weight f4 [72, 72]
0	0xbca0b039	-0.01961528
1	0xbdf36332	-0.118841544
2	0xbdabc703	-0.08387568
3	0xbcdeb812	-0.027187381
4	0x3b55ff16	0.0032653264
5	0xbc9d8155	-0.01922671
6	0xbc393038	-0.011303
7	0x3bb643fd	0.005562304
8	0xbc9a52ff	-0.018838404
9	0x3beaeed2	0.007169583
10	0xbce885c6	-0.0283841
11	0xbcf4b4fd	-0.029871458
12	0xbe6ba2e3	-0.23011355
13	0xbdd49d74	-0.10381594
14	0xbe05b4ae	-0.13057205
15	0xbc1ed438	-0.009694152
16	0xbd765555	-0.060139973
17	0x3dc03e18	0.093868434
18	0x3d30d526	0.043172024
19	0xbabd60c0	-0.0014448389
20	0xbc7b0fed	-0.015323621
21	0xbb857305	-0.0040725493
22	0xbc889c39	-0.016676055
23	0x3b07abad	0.0020701692
24	0xbe159a4a	-0.14609638
25	0xbdb93b2b	-0.090444885
26	0x37573736	1.2827853e-05
27	0xbd8eb938	-0.069689214
28	0x3c44c6ef	0.01201032
29	0xbe01185b	-0.12606947
30	0xbe73bfdb	-0.23803656
31	0xbc938dbe	-0.018011924
32	0x3c132604	0.008981232
33	0x3ce0e18d	0.027451301
34	0xbe9d2e79	-0.30699518
35	0x3c0e1626	0.008672273
36	0xbdb7ef4b	-0.089811884
37	0x3b8845d0	0.004158713
38	0xbc7eaecd	-0.015544605
39	0xbda23693	-0.079205655
40	0xbc1ce170	-0.009575233
41	0xbdc02048	-0.09381157
42	0xbe86d2c8	-0.26332688
43	0xbdbaadb5	-0.09115163
44	0x3dc6902a	0.09695466
45	0xbde3419a	-0.11096497
46	0xbc08b491	-0.008343832
47	0xbc8b3163	-0.016991323
48	0x3d8b7352	0.06809105
49	0xbdc408e6	-0.0957201
50	0xbe0df4ec	-0.13862962
51	0xbd2e3487	-0.042530563
52	0xbccf15ee	-0.025279012
53	0x3ba54d88	0.005044643
54	0x3cae4892	0.021274839
55	0xbc04603a	-0.008079583
56	0x3c75e735	0.015008737
57	0xbd531782	-0.05153609
58	0xbc3d3ba3	-0.011549863
59	0xbd492664	-0.049108878
60	0x3beb15f0	0.007174246
61	0xbcd188a8	-0.025577858
62	0xbe16b214	-0.14716369
63	0x3da31642	0.0796323
64	0xbe196300	-0.14979172
65	0xbd937895	-0.072007336
66	0xbe21a069	-0.15783848
67	0xbe0fde8f	-0.14049743
68	0x3c6b56af	0.014363929
69	0xbd0db4ad	-0.034596134
70	0xbef5a717	-0.47979042
71	0xbc09b1f1	-0.008404241
72	0xbd072d8b	-0.033002418
73	0x3c42f33b	0.011898811
74	0x3a3375b4	0.0006845847
75	0xbd2866fe	-0.041113846
76	0xbb8b8b28	-0.004258532
77	0xb9a6c7d5	-0.00031810874
78	0xbd8981db	-0.06714221
79	0xbc60bca3	-0.0137168495
80	0xbc31ecbc	-0.0108596645
81	0xbd321a5b	-0.043482166
82	0xbdac8389	-0.08423526
83	0xbafa969b	-0.001911837
84	0xbc95a17c	-0.018265478
85	0xbce9b99a	-0.028530885
86	0x3c811bf4	0.0157604
87	0xba184e80	-0.0005810037
88	0x3ba74157	0.0051042247
89	0x3c46458b	0.012101541
90	0xbc2faeb4	-0.010722805
91	0xbd4dd8b9	-0.05025551
92	0xbd20a5bf	-0.039220568
93	0xb93c9f4a	-0.00017988417
94	0x3c256062	0.01009378
95	0xbc3a25a0	-0.01136151
96	0xb902d10d	-0.00012475644
97	0xbc7acc7f	-0.015307545
98	0x3ac3e919	0.0014946788
99	0x3c365962	0.011129709
100	0x3b92b78f	0.0044774483
101	0xbcc7da9d	-0.024396235
102	0xbd34573d	-0.04402851
103	0xbad50acc	-0.0016253828
104	0xbd930125	-0.07177953
105	0xbaafb779	-0.001340612
106	0x3b68484a	0.0035443478
107	0xba3cf40d	-0.0007207997
108	0x3ab44625	0.0013753815
109	0xbd014ae2	-0.031565554
110	0xbc4d1576	-0.012517324
111	0xbcb4b21a	-0.022057582
112	0xbb991184	-0.0046712775
113	0xbd04dc2d	-0.03243654
114	0x3bb56ece	0.0055368906
115	0xbc3230b8	-0.010875873
116	0x3cb2da5b	0.021832636
117	0xbcc068d8	-0.023487493
118	0xbb4a7203	-0.003089071
119	0x3abdbfac	0.0014476678
120	0x3b0a02ea	0.0021058866
121	0x3c3c9486	0.01151002
122	0xbbde684a	-0.0067873346
123	0xbc5021de	-0.012703387
124	0xbcb7cf2b	-0.022437653
125	0xbc0d67ab	-0.008630673
126	0xbc87d698	-0.016581818
127	0xbb8a4c9e	-0.0042205593
128	0xbd6faa4b	-0.058512013
129	0x3c08ef18	0.008357786
130	0x3c237703	0.009977105
131	0xbce22d40	-0.027609468
132	0xbbd76a40	-0.0065739453
133	0xbd994072	-0.07482995
134	0xbc8faf64	-0.017539687
135	0xbcbdd8b7	-0.023174627
136	0x3cb73a3f	0.022366641
137	0xbd696025	-0.056976456
138	0xbab33f44	-0.0013675471
139	0xbc85146f	-0.016245095
140	0x3b617878	0.003440408
141	0xbc9b8500	-0.018984318
142	0xbcb0db9e	-0.021589097
143	0x3c46adba	0.012126381
144	0xbdaf4a2e	-0.085590705
145	0xbe497159	-0.19672145
146	0xbd8db0a2	-0.06918456
147	0xbded1820	-0.11576867
148	0xbddbe1b5	-0.107364096
149	0xbc8fb6ba	-0.017543186
150	0xbe2e3a2c	-0.17014378
151	0xbdd9b12b	-0.10629495
152	0x3c4196bb	0.011815722
153	0xbe1801ec	-0.14844483
154	0xbe55f8fd	-0.20895763
155	0x3c020f41	0.007938207
156	0xbd5393a0	-0.051654458
157	0x3d3e3602	0.046438225
158	0xbe684f07	-0.22686397
159	0xbc802478	-0.01564239
160	0xbb317f22	-0.0027083834
161	0x3c643190	0.013927832
162	0xbd33650d	-0.04379754
163	0x3d24ea51	0.040262524
164	0xbc980f14	-0.018561877
165	0xbcf9e901	-0.030506613
166	0x3cccba0a	0.024991054
167	0xbdc0d2a8	-0.094151795
168	0xbe778bc2	-0.24174407
169	0xbd74d224	-0.05977072
170	0xbd106009	-0.035247836
171	0xbd10e706	-0.03537657
172	0xbd304651	-0.04303581
173	0xbe165ed0	-0.14684606
174	0xbd9e78cb	-0.07737883
175	0xbb573567	-0.0032838227
176	0xbbc68917	-0.006058823
177	0x3c059267	0.008152581
178	0xbdaf466e	-0.08558355
179	0x3c83f307	0.016107095
180	0xbe94e55b	-0.29081234
181	0xbc92f4fc	-0.017939083
182	0xbe0c7902	-0.13718036
183	0xbcb81793	-0.022472179
184	0xbe1538d7	-0.14572464
185	0xbe2ee64d	-0.1708004
186	0xbe1f5083	-0.15558057
187	0xbd81b248	-0.063328326
188	0x3d05822f	0.032594856
189	0xbd74814b	-0.059693616
190	0x3d481c1a	0.048854925
191	0xbd4f1ef8	-0.050566643
192	0x3d90263d	0.070385434
193	0xbe51e863	-0.20498805
194	0xbe09c7f2	-0.1345518
195	0xbd5327ab	-0.051551502
196	0xbd0d85a8	-0.034551293
197	0xbd86f2f7	-0.065893106
198	0xbcd94eca	-0.026526827
199	0xbae7ab85	-0.0017675018
200	0x3dc07c38	0.09398693
201	0xbe34dc00	-0.17662048
202	0x3cb3c73f	0.021945594
203	0xbde9d540	-0.11417627
204	0xbd103c4a	-0.035213746
205	0xbe2d54f0	-0.16926932
206	0xbcc6d509	-0.024271505
207	0xbd7aabd2	-0.061199017
208	0xbde6abb6	-0.1126322
209	0xbe871737	-0.263849
210	0xbe8260d3	-0.25464496
211	0xbe919ab8	-0.28438354
212	0xbde9c697	-0.11414831
213	0xbdad8a74	-0.084736735
214	0xbd26dc44	-0.040737405
215	0xbdd2af94	-0.10287395
216	0xbdec1924	-0.11528233
217	0xbea89581	-0.32926562
218	0xbf13951c	-0.576494
219	0xbea84705	-0.32866684
220	0x3d1c4113	0.038147997
221	0xbc8d2299	-0.017228412
222	0xbebb8079	-0.36621454
223	0xbebb4d3d	-0.36582366
224	0x3d620d44	0.055188432
225	0xbe0523e7	-0.13001977
226	0xbee0b7f4	-0.43890345
227	0x3c4b2502	0.01239896
228	0xbe0d9250	-0.13825345
229	0xbdd44241	-0.103641994
230	0xbeba4b6c	-0.36385667
231	0xbe865eda	-0.2624424
232	0x3e070395	0.1318496
233	0x3e52f2a8	0.20600379
234	0x3e402131	0.18762662
235	0xbe2b4daf	-0.16728853
236	0xbcdcbc86	-0.026945364
237	0xbb3a39c3	-0.0028415776
238	0x3c6b7ed7	0.014373503
239	0x3b85f6e4	0.0040882695
240	0xbf0606c8	-0.523541
241	0xbf15e3e5	-0.58550864
242	0x3c3159c0	0.010824621
243	0x3c8c3757	0.017116232
244	0xbdb24fca	-0.08706625
245	0xbee5bc2d	-0.4487013
246	0xbea4e63c	-0.32206905
247	0xbcdc8b0f	-0.026921777
248	0xbe2380b7	-0.1596707
249	0x3d482ddf	0.04887187
250	0xbdabf933	-0.0839714
251	0xbe5e34a1	-0.21699764
252	0xbd3ba430	-0.04581088
253	0xbcee5eb1	-0.029097887
254	0xbeb03063	-0.34411916
255	0x3e9623d3	0.29324207

module.LGEBs.0.phi_e.3.bias f4 [72]
0	0x3e851b65	0.25997463
1	0xbd194247	-0.037416723
2	0x3b1ac540	0.0023616105
3	0x3d83de4c	0.06438884
4	0x3e3f5393	0.18684225
5	0x3e1de91e	0.15420958
6	0xbe2f33ed	-0.17109652
7	0xbdc0548a	-0.093911245
8	0x3cf72c74	0.030172564
9	0xbd3b317b	-0.045701485
10	0x3dd43032	0.10360755
11	0x3e368720	0.17824984
12	0xbb2afd3b	-0.0026090879
13	0x3dc28dfc	0.094997376
14	0xbcdee2ca	-0.02720775
15	0xbc9937a4	-0.01870329
16	0xbeef0267	-0.4668152
17	0x3e17a6a5	0.14809664
18	0xbe0b7f01	-0.13622667
19	0xbcb7a7f4	-0.022418953
20	0x3e15a9a4	0.14615494
21	0x3e18fe5c	0.1494078
22	0x3e682cbd	0.22673316
23	0x3e3eda39	0.18637933
24	0xbb881f9b	-0.0041541583
25	0xbd1994c3	-0.037495386
26	0x3e31df81	0.17370416
27	0xbe7f5eeb	-0.24938552
28	0x3e145b8d	0.14488049
29	0x3b22a0c5	0.0024815064
30	0xbda11cc7	-0.07866817
31	0xbc9d9f7e	-0.01924109
32	0x3e135ab0	0.14390063
33	0xbe356997	-0.1771606
34	0xbc9cadfe	-0.019125935
35	0x3e1a56df	0.15072201
36	0x397958f6	0.00023779631
37	0x3e3ddedd	0.18542047
38	0xbc18e023	-0.009330782
39	0x3e0afb19	0.13572349
40	0xbc87b617	-0.01656632
41	0xbbb0f24b	-0.0053999773
42	0x3bf12b20	0.007359877
43	0x3d46eeaa	0.04856745
44	0xbe304357	-0.17213188
45	0xbe1667bb	-0.14688008
46	0xbcf74d9b	-0.030188372
47	0xbd2695ee	-0.040670328
48	0xbe8b1f30	-0.27172232
49	0x3e556b28	0.20841658
50	0x3e5d9762	0.21639779
51	0xbddb267d	-0.107007004
52	0xbe1445fe	-0.14479825
53	0x3b968cb1	0.0045944084
54	0xbe81f4d2	-0.25382096
55	0x3ec4e247	0.38453886
56	0xbbb16aba	-0.005414334
57	0xbe984e57	-0.2974727
58	0xbc89f268	-0.016839221
59	0x3d6627bc	0.056190237
60	0x3e02a472	0.12758043
61	0x3e2529f4	0.16129285
62	0xbc4eef64	-0.012630317
63	0x3e240019	0.16015662
64	0x3e620c03	0.22074895
65	0x3e883690	0.26604128
66	0x3e3d4877	0.18484674
67	0xbd6f8261	-0.05847395
68	0x3c1e1425	0.0096483575
69	0x3e15a996	0.14615473
70	0xbc023add	-0.007948604
71	0x3d43a8cb	0.047768395

module.LGEBs.0.phi_h.0.weight f4 [72, 152]
0	0x3c0b78e5	0.00851271
1	0x3d63efa1	0.05564845
2	0x3c79a062	0.015235992
3	0xbc63a807	-0.013895041
4	0xbd54872c	-0.051886722
5	0x3a80af7f	0.0009817927
6	0x3c55e119	0.013054156
7	0x3c1fd9e9	0.009756544
8	0x3d039c05	0.032131214
9	0x3ae577b0	0.0017506983
10	0x3cc45e48	0.023970738
11	0x3d360d78	0.04444644
12	0xbb09be6f	-0.0021018048
13	0x3be28ead	0.006913981
14	0xbcf64b43	-0.030065184
15	0x3c20c8a3	0.0098134605
16	0x3cc8edd7	0.024527473
17	0x3ca958a9	0.02067216
18	0x3b85b9ad	0.004080972
19	0xbc294d5f	-0.010333388
20	0x3c80bd29	0.015715199
21	0xbcb4777a	-0.022029627
22	0xbbc7d58d	-0.0060984553
23	0x3d2eee8b	0.04270796
24	0x3d2bae55	0.041914303
25	0x3bd9fb50	0.0066522732
26	0xbc373255	-0.011181434
27	0xbc56b61e	-0.013104944
28	0xbc20a78d	-0.009805572
29	0x3c036af6	0.008021107
30	0xbb8556f1	-0.004069202
31	0xbd00e9f3	-0.03147311
32	0xbca06726	-0.019580435
33	0x3ce70305	0.028199682
34	0xbc6749ae	-0.014116688
35	0xbcb55205	-0.022133837
36	0x3977c4b7	0.00023629038
37	0x3bf59f76	0.007495816
38	0xbbf4c174	-0.0074693505
39	0x3c707768	0.014676906
40	0xbcc3fe37	-0.02392493
41	0x3b6e2369	0.0036337024
42	0xba1b168d	-0.0005916141
43	0x3d20a157	0.039216366
44	0x3a9d2a5d	0.0011990775
45	0x3b86aa78	0.004109677
46	0x3d9ee32f	0.077581756
47	0xbd03cf7a	-0.032180287
48	0x3b398a93	0.0028311356
49	0x3d72c404	0.059268966
50	0x3d2e6473	0.042576265
51	0x3c0bfa53	0.008543569
52	0x3d0fbd0f	0.03509241
53	0xbaddb718	-0.0016915528
54	0xbcc3928c	-0.02387359
55	0xbd014b75	-0.031566102
56	0xbd070c9b	-0.032971006
57	0xbce7595d	-0.028240854
58	0xbcf5ffbb	-0.030029168
59	0x3ceb969b	0.028758338
60	0x3d2326a5	0.039831776
61	0xbd58c6dd	-0.052924026
62	0xbc1c756c	-0.00954948
63	0xbd21fec6	-0.03954961
64	0xbb1bc52e	-0.0023768651
65	0xbc027d0f	-0.007964387
66	0xbd51d537	-0.05122873
67	0xbc948f66	-0.018134784
68	0xbcbb9f09	-0.022902982
69	0xbccc6918	-0.024952456
70	0x3d2668ba	0.04062722
71	0x3d13fd4e	0.036130242
72	0xbba71ca2	-0.005099849
73	0xbc5ddf9d	-0.013542083
74	0x3cb42369	0.021989541
75	0xba4534d4	-0.00075228256
76	0x3ac76f9d	0.0015215758
77	0xbd1fd684	-0.039022937
78	0xbcec6e3d	-0.02886116
79	0x3bc819bd	0.006106584
80	0xbdb580f7	-0.08862489
81	0xbc222f6d	-0.0098990025
82	0x3b9ccf1e	0.0047854325
83	0x3c169884	0.009191636
84	0x39fdcc00	0.00048407912
85	0xbc3278cd	-0.010893059
86	0x3ccec32a	0.025239546
87	0x3c2de692	0.010614054
88	0x3c0e4717	0.008683941
89	0xbcf692c8	-0.030099288
90	0x3be0f8d6	0.006865601
91	0xbb0885f9	-0.0020831807
92	0xbca67869	-0.020321088
93	0xbc9c7e0d	-0.019103074
94	0xbca18832	-0.019718263
95	0xbc95913b	-0.018257728
96	0x398898dc	0.0002605383
97	0x3b9783ae	0.0046238517
98	0xbce50b4d	-0.02795949
99	0xbc601df0	-0.013679013
100	0x3ca477fa	0.02007674
101	0xbd00d78f	-0.031455573
102	0xbc5182b3	-0.012787509
103	0x3879fab7	5.9599723e-05
104	0x3c9d3345	0.019189486
105	0xbb612a43	-0.0034357465
106	0x3a663126	0.00087811274
107	0x3ccc2e32	0.024924371
108	0x3ca8c266	0.020600509
109	0xbc4f3046	-0.012645787
110	0x3b9bd870	0.004756026
111	0x3cc61c76	0.024183493
112	0x3ce1e97d	0.027577156
113	0xbc061a24	-0.008184943
114	0x3ba78cb6	0.0051132096
115	0x3b918a44	0.0044415314
116	0xbcaac33a	-0.020845044
117	0x3c4fd961	0.0126861045
118	0x3cbd950f	0.023142366
119	0xbc01e5f8	-0.007928364
120	0xbcd6a31b	-0.026200822
121	0x3d3bd034	0.045852855
122	0x3acf8ab2	0.0015834181
123	0xbbb39552	-0.005480447
124	0x3bdf50dc	0.006815059
125	0xbc6a7b08	-0.0143115595
126	0xbc2b6ee9	-0.010463455
127	0x3b93a949	0.0045062643
128	0x3c33257f	0.010934233
129	0xbcb9245f	-0.02260035
130	0x3b300d4e	0.00268634
131	0x3ce1a4de	0.027544435
132	0xbca9c4a4	-0.020723648
133	0xbb1b1f6b	-0.002366985
134	0xbc754e4f	-0.0149722835
135	0xbc801868	-0.015636638
136	0xbcd68188	-0.026184812
137	0xbc92df5b	-0.01792877
138	0xbc3733a5	-0.011181747
139	0x3d14a1ff	0.036287304
140	0x3cd5cb0c	0.026097797
141	0xbcf1630f	-0.02946618
142	0x3b1588e3	0.0022817187
143	0xbc230c34	-0.00995164
144	0x3cb5b9f1	0.02218339
145	0xbca54886	-0.020176183
146	0x3d0daa3e	0.034586184
147	0xba104212	-0.00055030093
148	0xbdbd4fd9	-0.09243745
149	0xbc71f10b	-0.014766942
150	0x3c8ec502	0.017427925
151	0x3ce730ef	0.028221576
152	0x3d36d9fd	0.044641484
153	0x3d626c22	0.055278905
154	0xbbc839fc	-0.006110428
155	0x3c2687b2	0.010164188
156	0xbdef0609	-0.11671073
157	0xbc306233	-0.0107656
158	0x3c521dbd	0.012824473
159	0xbad20919	-0.001602444
160	0x3d916cf6	0.07100861
161	0xbb41eba7	-0.0029589923
162	0xbde2e94e	-0.110796556
163	0xbcb4ad05	-0.022055158
164	0xbd734692	-0.059393473
165	0x3dc9c583	0.098521255
166	0xbe0d4572	-0.13796023
167	0xbd78603d	-0.060638655
168	0x3dc37a03	0.09544756
169	0x3d81378a	0.06309421
170	0xbc475613	-0.012166518
171	0x3b17969c	0.0023130542
172	0x3c90d6d0	0.017680556
173	0x3cf906d3	0.030398762
174	0x3ce41b09	0.027844923
175	0xbbd78391	-0.0065769632
176	0x3d8f9501	0.07010842
177	0x3d5efdf3	0.054441404
178	0xbc8f4fbf	-0.01749408
179	0xbd81905f	-0.06326365
180	0xbd2e38f5	-0.042534787
181	0x3e1a9d75	0.15099128
182	0x3d8c7e64	0.068600446
183	0xbd0ae21c	-0.03390704
184	0xbcfa01aa	-0.030518372
185	0xbc2f12c8	-0.01068563
186	0xbcee128f	-0.029061584
187	0xbc8b4ea3	-0.01700527
188	0x3c9754e3	0.018473094
189	0x3cdb383e	0.026760217
190	0xbd7fcd66	-0.062451743
191	0x3d056316	0.0325652
192	0x3c00604e	0.007835461
193	0x3d598c94	0.05311258
194	0x3ce2c1be	0.027680274
195	0x3d32c9c2	0.043649442
196	0xbc758b5b	-0.014986838
197	0xbbf2dd91	-0.0074116667
198	0x3e1d455d	0.15358491
199	0xbd86f16a	-0.06589015
200	0x3e00e1d9	0.12586154
201	0x3d851975	0.06498996
202	0xbc07645e	-0.0082636755
203	0xbc8dba24	-0.017300673
204	0x3b7775cf	0.0037759428
205	0xbcef40fa	-0.029205788
206	0xbd8b49bd	-0.06801174
207	0xba9bd572	-0.0011889173
208	0xbba79304	-0.005113961
209	0x3ca1445e	0.01968592
210	0x3cd4cb5c	0.025975876
211	0xbb748a99	-0.0037314056
212	0xbc55b3ce	-0.013043357
213	0xbdd0cdad	-0.101954795
214	0xbdcd6daa	-0.100306824
215	0x3be5f177	0.0070173102
216	0x3dad3903	0.0845814
217	0xbd62a63e	-0.055334322
218	0xbcd3cc1b	-0.025854161
219	0x3d81aba7	0.06331568
220	0xbcaf2d4c	-0.021383904
221	0xbcfc34d2	-0.030786905
222	0xbc7fab06	-0.01560474
223	0xbd347a6d	-0.044062067
224	0xbd536170	-0.051606596
225	0xbc4d6ab0	-0.012537643
226	0x3e46c916	0.19412646
227	0xbd539c56	-0.051662765
228	0x3cbbe694	0.022937097
229	0x3afa0763	0.0019075688
230	0x3c1fed2a	0.009761134
231	0xbd3e4713	-0.0464545
232	0xbdfebade	-0.12437986
233	0x3c5f6108	0.013633974
234	0x3c4d4243	0.012528005
235	0xbc3d40e0	-0.011551112
236	0x3c166e90	0.009181634
237	0x3c239a67	0.009985543
238	0xbdacdcdc	-0.08440563
239	0x3c4d913a	0.012546832
240	0xbbbd64e0	-0.0057798475
241	0x3c34f750	0.011045292
242	0x3d2ea670	0.042639196
243	0x3b946e54	0.0045297537
244	0xbd0503f8	-0.032474488
245	0x3da33f69	0.07971079
246	0xbd3875b4	-0.045034125
247	0xbcddb32f	-0.02706298
248	0x3b8d3902	0.0043097744
249	0xbb810501	-0.003937364
250	0xbc91b69c	-0.01778727
251	0xbc2b6811	-0.010461823
252	0x3db60e28	0.08889419
253	0xba25455d	-0.00063045864
254	0x3cdcf6f4	0.026973225
255	0x3a7bfe1a	0.0009612754

module.LGEBs.0.phi_h.0.bias f4 [72]
0	0xbb39c3b6	-0.0028345413
1	0xbad7f2cd	-0.0016475559
2	0xbaadbfde	-0.0013256033
3	0xbc4d0a0c	-0.012514602
4	0x3b071deb	0.0020617198
5	0xbcb735eb	-0.022364577
6	0x3bce17f9	0.006289479
7	0x3c0832f1	0.008312927
8	0x3bcf7109	0.0063306135
9	0x3b8ded09	0.0043312353
10	0x3bc23e8a	0.0059278654
11	0x3bdc9334	0.006731415
12	0x3bc49a6a	0.005999853
13	0x3b5b3202	0.0033446555
14	0x3abd2e7f	0.0014433413
15	0xbb4ce21a	-0.0031262697
16	0x3bde0f28	0.006776709
17	0xbbb136f0	-0.0054081604
18	0xbb043cd6	-0.0020177863
19	0x3aacec6c	0.0013193018
20	0xbb882c78	-0.0041556917
21	0x3b3a8572	0.0028460887
22	0xbafb0b00	-0.0019153059
23	0xba4d9def	-0.00078436633
24	0x3b4127ff	0.0029473302
25	0xbbe9bd47	-0.0071331593
26	0xbc016db9	-0.007899695
27	0xbb49e8f9	-0.0030809029
28	0xbc2e49e3	-0.010637733
29	0xbc036028	-0.008018531
30	0xbb4c98a8	-0.003121892
31	0x3c31c4f3	0.010850179
32	0xbc1df869	-0.009641745
33	0xbc100536	-0.008790305
34	0xbc31cb72	-0.010851728
35	0xbc0a0a74	-0.008425344
36	0x3959a8dd	0.00020757639
37	0xbbc9c65c	-0.0061576795
38	0x3c08a2d6	0.008339604
39	0x3b477d5e	0.0030439715
40	0x3a441c40	0.0007481016
41	0xbc1d1dc2	-0.009589614
42	0x3be063e8	0.0068478473
43	0xb93dab6f	-0.00018088309
44	0x3bd4dc89	0.0064960164
45	0x3b7ddbae	0.0038735676
46	0xbb87b28f	-0.004141159
47	0xbb1624c0	-0.0022910088
48	0xbb9abd17	-0.0047222483
49	0x3bed8d75	0.007249529
50	0xbc0d23c2	-0.008614482
51	0xbb6e0899	-0.0036321043
52	0xbb7ee743	-0.0038895167
53	0xbc407005	-0.011745458
54	0x3b37894c	0.002800542
55	0x39820535	0.00024799412
56	0x3c1403f8	0.009034149
57	0xbbba0f1f	-0.005678072
58	0xbc126b27	-0.00893668
59	0xb9f9d72f	-0.00047653305
60	0x3b6c075d	0.003601513
61	0xbb8c2fdd	-0.0042781667
62	0xbc59578d	-0.013265503
63	0xb8288d71	-4.018605e-05
64	0x3adcea96	0.001685458
65	0x3bb651d8	0.0055639558
66	0xbb4afbdc	-0.0030972874
67	0xbbad3047	-0.005285296
68	0xb9a8421f	-0.0003209272
69	0xbbe8e47b	-0.007107315
70	0xbc2e497e	-0.010637639
71	0xbbea579d	-0.0071515576

module.LGEBs.0.phi_h.1.weight f4 [72]
0	0x3ba9ac1f	0.005177989
1	0x3cc2ccf2	0.023779366
2	0x3da84869	0.08216936
3	0x3e56ba44	0.20969492
4	0x3a07b581	0.00051768875
5	0x3ecdb46d	0.40176716
6	0xbaf33b0e	-0.0018557028
7	0x3c1152e9	0.008869865
8	0x3e71daf1	0.23618676
9	0xbafe4734	-0.0019399882
10	0xbb07612f	-0.0020657291
11	0xbc327539	-0.010892206
12	0x3e96214c	0.29322278
13	0x3e7723dd	0.24134775
14	0x3e4d03dc	0.20021003
15	0x3ea06805	0.3132936
16	0x3a04f4a3	0.0005071854
17	0x3e7caa09	0.24674238
18	0x3ccecc8b	0.025244018
19	0x3cac8878	0.021061167
20	0x3ec1e699	0.37871245
21	0x3e55381f	0.2082219
22	0x3e25bbf3	0.16184978
23	0x3a0d760d	0.0005396314
24	0xbbafc568	-0.005364109
25	0x3d8331ff	0.064060204
26	0xb9c29383	-0.00037112468
27	0xb9e64149	-0.0004391766
28	0x3de640c7	0.11242824
29	0x3d3d207e	0.046173565
30	0x3d87d87a	0.066330865
31	0x3ebc53e0	0.36782742
32	0x3d85915c	0.06521866
33	0x3ca43c4f	0.020048289
34	0x3de4d532	0.11173476
35	0x3d8d3f94	0.06896892
36	0x3e3fda96	0.18735728
37	0x3e95de8f	0.2927136
38	0xbb000414	-0.001953368
39	0x3da9c068	0.08288652
40	0x3e9df105	0.30847946
41	0x3dd9f9c3	0.106433414
42	0x3b47f099	0.0030508398
43	0x3e2d6064	0.16931301
44	0x3e8a336d	0.2699236
45	0x3deeb900	0.1165638
46	0x3a7c69b0	0.0009628786
47	0x3efc1c58	0.49240375
48	0x3ea113c1	0.31460384
49	0x3cad9822	0.021190707
50	0x3ead14d5	0.33804956
51	0x3decad07	0.1155644
52	0x3e9c5c30	0.30539083
53	0x3df266bb	0.118360005
54	0x3ba59580	0.005053222
55	0x3a3ad297	0.0007126717
56	0x3e8f32bd	0.27968398
57	0x3dd6483c	0.10462996
58	0x3e4ece6c	0.20195931
59	0xb81eb714	-3.784064e-05
60	0x3b708e08	0.003670575
61	0x3e34dea1	0.17663051
62	0x3dc68614	0.09693542
63	0xba049038	-0.00050568907
64	0x3e5de971	0.21671082
65	0xb92b4c06	-0.00016336152
66	0x3ea17914	0.31537688
67	0xb92491b0	-0.00015694532
68	0x3c275811	0.010213868
69	0x3e4f09f0	0.20218635
70	0x3e1aa695	0.15102609
71	0x3ea4ebeb	0.3221124

module.LGEBs.0.phi_h.1.bias f4 [72]
0	0xbd5740f9	-0.052552197
1	0xbd304726	-0.043036602
2	0xbcbab289	-0.02279021
3	0x3d84ee53	0.06490769
4	0xbb9500ad	-0.0045471997
5	0x3d2a27bf	0.04154181
6	0xbc838306	-0.016053688
7	0xbd2afc23	-0.041744363
8	0xbdffd24b	-0.12491282
9	0xbb8bdf47	-0.00426856
10	0xbca81fe5	-0.020523021
11	0xbd09bb6f	-0.033626016
12	0xbe00ca32	-0.12577131
13	0xbdec0608	-0.11524588
14	0x3de6e3ba	0.11273904
15	0xbe01e8ea	-0.12686506
16	0xbd48b28b	-0.048998397
17	0x3daebe53	0.08532395
18	0xbc870132	-0.016480062
19	0xbd06db1a	-0.032923795
20	0xbd847fd3	-0.06469693
21	0x3df1daa3	0.1180928
22	0x3e5c9f0c	0.21545047
23	0xbc798a9b	-0.0152308
24	0xbc5841ee	-0.013199313
25	0xbd76e2c9	-0.060274873
26	0xba9e098b	-0.0012057287
27	0xbcf9935c	-0.030465774
28	0x3e0d22ec	0.13782853
29	0xbcf7438c	-0.030183576
30	0x3e3452fe	0.17609784
31	0x3cc944f7	0.024569018
32	0xbd6c3bd1	-0.057674233
33	0xbd7438e6	-0.059624575
34	0x3d3acc86	0.045605205
35	0x3caffdf0	0.021483392
36	0xbd9c3341	-0.076269634
37	0x3d2dce55	0.0424331
38	0xbca88d31	-0.020575138
39	0x3ce429f4	0.027852036
40	0x3d57199b	0.052514654
41	0x3d7cc7e8	0.061714083
42	0xbd66c60d	-0.05634122
43	0x3dada6d1	0.08479083
44	0x39faecbb	0.00047860094
45	0x3e068155	0.13135274
46	0xbc2a2bce	-0.01038642
47	0x3da160b8	0.07879776
48	0xbd3ba62c	-0.04581277
49	0xbcf1ba68	-0.02950783
50	0xbd8552d2	-0.06509937
51	0x3e006e00	0.12541962
52	0xbd889cfe	-0.06670569
53	0x3e0d92c8	0.13825524
54	0xbc2caf53	-0.010539847
55	0xbc6a9677	-0.0143181
56	0xbde7e5f4	-0.11323157
57	0x3c6a511d	0.0143015655
58	0x3e202ee7	0.15642892
59	0xbafbc8b3	-0.0019209593
60	0xbcffe878	-0.03123878
61	0xbdc1404d	-0.094360925
62	0x3bf2e84a	0.007412945
63	0xbd566472	-0.052341886
64	0x3d94f3f7	0.07273095
65	0xbc1b2a89	-0.00947059
66	0xbda1e4cc	-0.07904968
67	0xbc07e40b	-0.008294116
68	0xbceff36b	-0.029290875
69	0x3de682da	0.11255427
70	0x3dc5f180	0.09665203
71	0xbc37c9f6	-0.011217585

module.LGEBs.0.phi_h.1.running_mean f4 [72]
0	0xbd114ee2	-0.03547562
1	0xbe9a08dd	-0.30084887
2	0x3e430ae4	0.19047123
3	0xbf84856b	-1.0353216
4	0x3dd7f939	0.10545582
5	0xbfe356b3	-1.7760834
6	0x3e4fa02a	0.20275941
7	0xbe0cce9f	-0.13750695
8	0xbfdef66f	-1.7418956
9	0x3eb4cd97	0.35313103
10	0x3e13109a	0.14361802
11	0x3e316d38	0.1732682
12	0xbfc2a1ca	-1.5205624
13	0xbfe6ad08	-1.8021555
14	0xbffdbbc5	-1.9822928
15	0xc01385a7	-2.3050325
16	0x3e48bf5a	0.19604245
17	0xbfc3f300	-1.5308533
18	0xbf109c63	-0.5648863
19	0xbed9edbe	-0.42564195
20	0xbf54c0f8	-0.83106947
21	0xbf3880ac	-0.7207134
22	0xbfa0a45d	-1.255016
23	0x3e2be744	0.1678744
24	0x3e6fdd1c	0.2342419
25	0xbf629a98	-0.8851714
26	0x3da9f41c	0.08298513
27	0x3eb0b95f	0.34516427
28	0xbfcb2f27	-1.5873765
29	0xbe2382b1	-0.15967824
30	0xbf0834aa	-0.5320536
31	0xbf9d1bae	-1.2274072
32	0xbf9b1bfa	-1.2117913
33	0xbe68127e	-0.22663304
34	0xbf459c32	-0.7719146
35	0x3daed89d	0.085374095
36	0xbf942ac7	-1.1575555
37	0xbee74a47	-0.45173857
38	0x3dab91e2	0.08377434
39	0x400b0ab9	2.1725295
40	0xbf89b9fb	-1.0759882
41	0x3e103c25	0.14085443
42	0x3e898ce9	0.26865318
43	0xbf9d862b	-1.230657
44	0xbfa12ed7	-1.2592419
45	0xbf36289b	-0.7115571
46	0xbe5b1d99	-0.2139801
47	0xbf34f492	-0.70685685
48	0xbfb5366c	-1.4157233
49	0xbf1d3b31	-0.61418444
50	0xc012fbf6	-2.2966285
51	0xbef4ac67	-0.47787783
52	0xbf9a110a	-1.203645
53	0xbf73c030	-0.9521513
54	0xbecae57f	-0.39628217
55	0x3e36c147	0.17847167
56	0xc01ab314	-2.41718
57	0xbf416e76	-0.75559175
58	0xbf118b46	-0.5685314
59	0x3e05ab4c	0.13053626
60	0xbee15448	-0.44009614
61	0xbf430414	-0.761781
62	0x3f78cc3a	0.97186625
63	0x3e420bab	0.18949763
64	0xbf85509a	-1.0415223
65	0x3d6b0825	0.057380814
66	0xc038fdda	-2.8904939
67	0x3ef32796	0.4749114
68	0xbf3af15b	-0.7302453
69	0xbf823b60	-1.017437
70	0xbfc7ad4a	-1.5599759
71	0xc01ce0a5	-2.4512112

module.LGEBs.0.phi_h.1.running_var f4 [72]
0	0x3c820116	0.015869658
1	0x3e9ecfc3	0.31017885
2	0x3f94940f	1.1607684
3	0x409c1abf	4.878265
4	0x3d1d8881	0.03846026
5	0x4146c171	12.422227
6	0x3e1c3ab3	0.15256767
7	0x3d822f1b	0.06356641
8	0x411644f4	9.391834
9	0x3edee4d3	0.43533954
10	0x3d96b625	0.0735896
11	0x3db3d1cc	0.0878025
12	0x40ebd398	7.3695793
13	0x4123c260	10.234955
14	0x416c1b8b	14.756724
15	0x4190ae70	18.085175
16	0x3e01efd5	0.12689145
17	0x415db5a5	13.856847
18	0x3f966f31	1.1752683
19	0x3f068879	0.5255199
20	0x405071ec	3.2569532
21	0x3fecd34c	1.8501983
22	0x410f6cfd	8.964108
23	0x3daea05c	0.0852668
24	0x3e3941ff	0.18091582
25	0x402d20c5	2.705125
26	0x3d01868e	0.031622462
27	0x3f285be4	0.65765214
28	0x410a5135	8.644826
29	0x3dc95275	0.098301806
30	0x40660d27	3.5945528
31	0x40a3dd28	5.1207466
32	0x40a42850	5.129921
33	0x3e1a7277	0.15082727
34	0x402c66d8	2.693777
35	0x3fd8e673	1.6945328
36	0x4095a140	4.675934
37	0x3fde6c8b	1.7376875
38	0x3cd9622b	0.026536068
39	0x416d0935	14.814748
40	0x408807b2	4.2509394
41	0x400bc284	2.1837473
42	0x3eb1a9d0	0.3469987
43	0x40a44011	5.1328206
44	0x40bb52d5	5.8538613
45	0x3ffaa2df	1.9580954
46	0x3fa83681	1.3141633
47	0x4003efe6	2.0615172
48	0x4151bb6c	13.108257
49	0x3fad1267	1.3521241
50	0x41b3f017	22.492231
51	0x3ffaed7b	1.9603723
52	0x40a6a664	5.2078114
53	0x40c0724d	6.0139527
54	0x3ee82c7b	0.45346436
55	0x3dd03011	0.10165418
56	0x419b6f88	19.429459
57	0x4037b481	2.870392
58	0x3ff33ac7	1.9002312
59	0x3da23bc1	0.079215534
60	0x3f12c881	0.57337195
61	0x40181337	2.3761728
62	0x408dd4a0	4.432205
63	0x3e03bc53	0.12864809
64	0x407b5acd	3.927417
65	0x3c7d8b8f	0.015475168
66	0x4213189c	36.774033
67	0x3f784900	0.9698639
68	0x3ffa805e	1.9570425
69	0x40823aeb	4.069692
70	0x412dccea	10.862528
71	0x41d6a9ac	26.832848
